results/attention_layer/checkpoints/attention_layer_results_method_Adam+Newton_lr_0.001_variant_None_L_1.0_reg_0.01.pth (torch, 8720 bytes, 4 tensors)

attention.in_proj_weight f4 [48, 16]
000000 af 9b 87 c0 55 6b 62 bf a5 53 50 c2 43 42 44 41
       -4.2377543 -0.88445026 -52.081684 12.266177
000010 b6 97 57 41 55 7a 7c c1 59 f3 20 c1 9b f0 2d 42
       13.474539 -15.779866 -10.059411 43.484966
000020 d2 72 44 c1 e8 2c 66 40 80 be 54 42 cf 43 08 c2
       -12.278032 3.5964909 53.186035 -34.06622
000030 95 9a ac 41 ff 76 d6 c1 1a 1b a2 40 0d d9 24 c1
       21.57548 -26.808104 5.0658083 -10.302991
000040 87 66 00 c1 9c 69 50 42 19 e4 6e 41 fc e0 53 c1
       -8.025031 52.103134 14.930688 -13.242428
000050 3a 0b 39 c2 47 12 ac c1 64 4f 4f c2 07 6c a6 c2
       -46.260963 -21.508924 -51.82753 -83.21099
000060 a4 83 4d c1 67 62 a7 c1 83 fa 91 c2 56 f3 b3 c0
       -12.844639 -20.923048 -72.98928 -5.623454
000070 5b 1c a6 c1 d7 b0 7e c2 d6 e0 cb c2 42 da a3 41
       -20.763845 -63.672695 -101.93913 20.481571
000080 dd e8 3e 40 ac d4 0d c2 cf de cc 42 49 04 ee c1
       2.9829628 -35.457687 102.43517 -29.752092
000090 09 53 9d c1 d3 f0 cd c1 c0 2e 35 42 bd c1 69 c2
       -19.665545 -25.74259 45.295654 -58.439198
0000a0 16 42 02 41 98 b0 75 41 9c 22 84 c2 4f b0 28 42
       8.141134 15.355614 -66.0676 42.172176
0000b0 3f e7 13 c2 e4 b8 03 42 f4 48 25 bf f7 b9 44 42
       -36.975826 32.930557 -0.6456444 49.181606
0000c0 06 c6 1a c1 05 ce 5e bf 05 70 c0 c1 8f d2 13 c0
       -9.673346 -0.8703311 -24.054697 -2.3097265
0000d0 00 31 3c c1 3c 4b 1a 41 13 b4 79 40 cd c9 bf 3f
       -11.761963 9.643368 3.9016159 1.498346
0000e0 ee 96 66 c0 54 87 a4 c0 3d e8 0e 42 55 76 83 c1
       -3.602962 -5.1415195 35.726795 -16.43278
0000f0 c4 69 cf 41 77 88 da c1 3d d9 29 c0 65 7d 6e 40
       25.926643 -27.316633 -2.6538842 3.7264035
000100 c1 12 18 c2 a2 5e 23 42 17 73 83 42 95 4e 57 40
       -38.018314 40.842415 65.724785 3.3641713
000110 e5 d5 d6 be 8d b1 da 41 de ee c6 41 f4 00 87 c2
       -0.41960064 27.336695 24.866634 -67.50186
000120 2e 18 13 42 ee 25 f3 41 bb 5b b9 c2 8d 0a 2f 42
       36.773613 30.39352 -92.67916 43.760303
000130 28 66 66 c2 50 79 b6 c1 c2 27 96 c2 65 52 cc c1
       -57.599762 -22.809235 -75.07765 -25.540232
000140 33 99 3f c2 4d c8 93 c1 8d 6c 52 42 5c 8d 43 41
       -47.89961 -18.472803 52.606007 12.222012
000150 bf 48 13 41 8b 5a a6 41 23 82 46 42 69 f9 71 c1
       9.20526 20.79421 49.627087 -15.123391
000160 59 a2 04 42 61 c7 8e 41 13 86 ed c1 8c b1 8b 42
       33.158543 17.847353 -29.690466 69.84677
000170 ca 0b 2b c2 7e d1 24 42 78 d8 75 c1 34 c8 37 c2
       -42.761513 41.204582 -15.365349 -45.94551
000180 e0 47 3b 40 cd df c4 42 ed 16 2a c3 e4 c3 78 42
       2.926262 98.43711 -170.08955 62.1913
000190 0e 1f 42 42 14 b4 97 41 6c b3 32 c2 d7 b4 dc 42
       48.530327 18.962929 -44.675217 110.3532
0001a0 87 47 16 41 fb eb 8b c1 5a 37 92 42 0f 17 bc c2
       9.392463 -17.490225 73.10811 -94.04504
0001b0 92 d7 4c 42 e7 d4 c2 c2 2b fe 69 c1 a5 5f 2a c2
       51.210518 -97.415825 -14.624553 -42.593403
0001c0 60 d9 8b 3f a6 62 dc 40 ab ea d4 c1 26 2b 27 41
       1.0925713 6.887042 -26.614584 10.448034
0001d0 d2 35 ba 40 09 97 33 c1 20 d4 74 c1 99 2d b5 41
       5.81907 -11.224374 -15.301788 22.647264
0001e0 b0 60 d4 3f 38 a4 63 c1 ac f8 ff 40 1a 6c 74 c0
       1.6592007 -14.227592 7.9991055 -3.819098
0001f0 44 fd c3 40 33 67 87 c0 33 c8 0a c1 79 ea 37 c0
       6.124666 -4.2313476 -8.673877 -2.873686
000200 3d 7d 02 42 55 ec fe 41 18 ac ad c2 bd 7d ff c0
       32.622303 31.865396 -86.83612 -7.984099
000210 2b 61 61 c1 fc 6b 46 c1 55 e8 aa c2 64 93 c7 40
       -14.086223 -12.401363 -85.45377 6.236742
000220 ba 3d 78 c2 92 ae 40 c2 09 b8 90 42 3e 3b 97 c2
       -62.06028 -48.17048 72.35944 -75.61571
000230 7d a7 90 42 d0 f5 18 c2 a8 24 d2 40 c8 e8 0b 42
       72.327126 -38.24005 6.5669746 34.977325
000240 e6 08 9a 41 d7 50 41 42 34 9e a8 c2 99 af 3a 41
       19.254345 48.328945 -84.30899 11.6678705
000250 d9 e0 23 41 8b 37 7c 3e 5f d5 c0 c1 d2 e5 03 42
       10.242394 0.24630563 -24.104185 32.974434
000260 0f 35 d5 c1 3b 77 e0 bf ef 61 68 42 90 e0 a9 c2
       -26.650908 -1.7536386 58.09564 -84.9386
000270 04 5a 7a 42 92 6e bb c2 3d 92 81 c0 f1 aa 63 41
       62.587906 -93.71596 -4.0491014 14.229234
000280 37 dc ac 41 92 36 e1 41 f8 5d f1 c1 32 52 9f 41
       21.607527 28.151646 -30.170883 19.915134
000290 dd d3 a6 41 19 49 4a 41 7f 2b 39 c1 34 98 24 41
       20.853449 12.642846 -11.573119 10.287159
0002a0 9a f7 bd 3e d6 69 59 c1 1f 96 20 c1 aa 1a 89 c1
       0.37102968 -13.588339 -10.036651 -17.13802
0002b0 b5 c4 7f 40 50 9e 9a c0 ad be de 40 26 aa a3 40
       3.996381 -4.8318253 6.960776 5.11452
0002c0 2b 0c 53 41 80 6c 45 41 c7 54 80 c1 08 fe 25 40
       13.190471 12.338989 -16.041395 2.5936298
0002d0 21 c5 df c0 bb dc c8 3e d1 88 6d c1 0f a1 8a 41
       -6.9928136 0.39230904 -14.845902 17.328642
0002e0 8a 5c 62 41 89 9e 84 c0 80 c4 40 c1 e3 a2 e1 40
       14.147593 -4.1443524 -12.047974 7.0511336
0002f0 14 a1 20 c0 44 fa 49 c1 c9 68 b8 c1 8e 9a 03 c1
       -2.5098314 -12.6236 -23.051165 -8.225233
000300 9a b3 2e 41 5a 5f a5 c1 69 16 4a 42 a1 8c d6 c0
       10.918848 -20.671558 50.521885 -6.7046666
000310 a8 26 a0 c0 ec 6d e3 c0 52 31 0d 42 2d 0d 42 c1
       -5.004719 -7.107168 35.298164 -12.128217
000320 22 67 fb 41 3d ea 55 42 f9 8a 8b c2 c4 e5 f3 bf
       31.425358 53.47875 -69.77143 -1.9054494
000330 0a 65 1e c2 cd 3d 5c c1 8f 96 9e c1 38 d1 ff 40
       -39.59867 -13.765088 -19.823515 7.9942894
000340 1b 65 17 c1 77 2a b9 41 fc fe 86 c1 75 38 b8 be
       -9.462184 23.145735 -16.874504 -0.35980573
000350 dc b4 8a c1 10 ff 5b 3f 51 c1 cd c1 68 94 67 c0
       -17.33831 0.8593607 -25.719393 -3.618433
000360 2c 9f d2 c0 10 f4 e3 3f f9 77 a9 40 99 b9 15 c1
       -6.58193 1.7808857 5.295895 -9.357812
000370 3f 61 1b 40 ec 82 02 c2 7d e8 f9 c1 d6 3b 8b c1
       2.4278104 -32.627853 -31.23852 -17.404217
000380 4e 2d 51 41 e6 f7 a4 41 0b 70 94 42 bc 19 35 c2
       13.073561 20.621044 74.218834 -45.27513
000390 f7 35 16 c2 d9 ef 81 c1 09 67 ce c1 57 c2 ce c2
       -37.5527 -16.242113 -25.80031 -103.37957
0003a0 23 6b da c1 0c 3e 91 c1 ab e1 66 c2 13 1d 6b 40
       -27.302313 -18.155296 -57.72038 3.6736495
0003b0 3e 75 b9 40 b2 a9 15 c1 f2 31 0b c2 70 ff a2 42
       5.795562 -9.3539295 -34.798775 81.4989
0003c0 02 3a 9e c1 c6 91 79 42 46 40 30 c2 de 63 64 41
       -19.778324 62.392357 -44.062767 14.274382
0003d0 c6 65 19 c1 54 88 17 41 6e d2 d7 c1 07 3f 59 c1
       -9.587347 9.470783 -26.977749 -13.577888
0003e0 4c af 9e c0 89 f3 0d c0 a0 5f 14 c0 17 84 2b c2
       -4.9588985 -2.2179892 -2.3183365 -42.878994
0003f0 cd 33 15 3e 51 8c 86 c2 6f d4 35 c2 02 05 66 c1
       0.14570542 -67.274055 -45.457455 -14.376223

attention.in_proj_bias f4 [48]
000000 00 00 00 00 00 00 00 00 00 00 00 00 00 00 00 00
       0.0 0.0 0.0 0.0
000010 00 00 00 00 00 00 00 00 00 00 00 00 00 00 00 00
       0.0 0.0 0.0 0.0
000020 00 00 00 00 00 00 00 00 00 00 00 00 00 00 00 00
       0.0 0.0 0.0 0.0
000030 00 00 00 00 00 00 00 00 00 00 00 00 00 00 00 00
       0.0 0.0 0.0 0.0
000040 00 00 00 00 00 00 00 00 00 00 00 00 00 00 00 00
       0.0 0.0 0.0 0.0
000050 00 00 00 00 00 00 00 00 00 00 00 00 00 00 00 00
       0.0 0.0 0.0 0.0
000060 00 00 00 00 00 00 00 00 00 00 00 00 00 00 00 00
       0.0 0.0 0.0 0.0
000070 00 00 00 00 00 00 00 00 00 00 00 00 00 00 00 00
       0.0 0.0 0.0 0.0
000080 00 00 00 00 00 00 00 00 00 00 00 00 00 00 00 00
       0.0 0.0 0.0 0.0
000090 00 00 00 00 00 00 00 00 00 00 00 00 00 00 00 00
       0.0 0.0 0.0 0.0
0000a0 00 00 00 00 00 00 00 00 00 00 00 00 00 00 00 00
       0.0 0.0 0.0 0.0
0000b0 00 00 00 00 00 00 00 00 00 00 00 00 00 00 00 00
       0.0 0.0 0.0 0.0

attention.out_proj.weight f4 [16, 16]
000000 26 90 bb bd ff 6f 6c bd da a6 11 bd 2d f0 63 3d
       -0.091583535 -0.057723995 -0.035559513 0.05564897
000010 c8 ec 19 bc e6 1e 43 be 6c 78 5a be c4 62 72 3e
       -0.009394832 -0.19054756 -0.21335 0.23670489
000020 4e 78 06 3e 2a f4 83 bd 61 87 e5 3d 48 e3 54 be
       0.1313183 -0.06443055 0.11207462 -0.20789826
000030 1c e9 00 3e 97 70 4e bd b5 7f 15 3e b5 ac b4 bc
       0.12588924 -0.050400343 0.14599498 -0.02205501
000040 47 ab 66 bd 15 e4 48 be a4 c8 e9 3d 3d db 96 bd
       -0.056315687 -0.19618256 0.11415222 -0.07366035
000050 7e d6 47 3e 34 14 b2 3b 64 b8 1e 3e d2 b5 e6 3d
       0.19515416 0.0054345373 0.15500027 0.11265148
000060 0c c4 52 3d b7 43 04 be f9 21 1f 3e 17 d8 32 3e
       0.051456496 -0.12916456 0.15540303 0.17465244
000070 cd b3 ec 3d 19 a0 d3 bd 94 c3 a3 3d 41 01 8d bc
       0.11557732 -0.103332706 0.07996288 -0.017212512
000080 43 c9 3c 3e 5f 56 42 3e ab 83 59 bd 35 cf 97 bd
       0.1843615 0.1897826 -0.053104084 -0.074125685
000090 e2 67 d5 3d ed 4b 27 bd 5f a8 7b 3e e5 2a 18 be
       0.10420205 -0.040843893 0.24575947 -0.14860113
0000a0 65 36 fc 3c 04 8a 00 be 15 f7 22 be 71 08 dd bd
       0.030787656 -0.12552649 -0.15914567 -0.10792626
0000b0 72 6b 0a 3d cc 0e 1f be d2 96 60 be 20 64 ae 3d
       0.033793874 -0.15532988 -0.21932533 0.08515191
0000c0 34 90 5f 3e 4b 18 49 3e fb cf 80 3e db 22 46 bd
       0.21832353 0.19638173 0.25158677 -0.048373085
0000d0 e9 e8 47 bd d0 87 10 3e 5b 09 d4 3d 2c 69 37 be
       -0.048806105 0.14114308 0.10353347 -0.17911214
0000e0 a7 67 6a be 7c 12 00 3e 03 01 bd bd 3c 5b 49 be
       -0.22891103 0.12507051 -0.092287086 -0.1966371
0000f0 13 a7 30 3e 69 7f 01 3e 44 3e c1 3d cc 71 0a be
       0.17251234 0.1264626 0.09435704 -0.13519973
000100 f6 96 4b be 7f 48 e5 3d fd 9b bb bd 2a 34 2b be
       -0.19881806 0.11195468 -0.09160612 -0.16719118
000110 d8 46 cb 3d bb ba 48 3e ca a3 8c 3d dc d2 c7 3b
       0.09925622 0.19602482 0.06867178 0.0060981344
000120 9f 4f e5 bd 4a 18 1b 3e 95 2e 12 be 0d 61 50 3e
       -0.11196827 0.15145984 -0.14275582 0.20349522
000130 fd f6 71 be 72 6c 97 3c 84 00 4b be 47 3d c7 bd
       -0.23629375 0.018484328 -0.19824415 -0.097284846
000140 c8 ee 1a 3e 89 4d e5 bc 0c 78 60 be f4 fc 43 be
       0.1513015 -0.027991073 -0.21920794 -0.19139463
000150 08 d4 b1 bd aa 09 72 3e 84 6c a8 bd 29 7e 21 be
       -0.0868302 0.23636499 -0.08223823 -0.15770783
000160 4d 3a d1 3d e9 c0 7a bd bd 9a c4 bc 2e d8 27 be
       0.10216198 -0.06121913 -0.023999566 -0.1639106
000170 3e 23 6a 3e be 5f a5 3d 04 7c 12 be ed cd 7e be
       0.22865006 0.08074902 -0.1430512 -0.24883242
000180 99 60 15 3d 51 d2 81 3d 0f 2a bb 3d a5 77 47 be
       0.036469076 0.06338943 0.091388814 -0.19479235
000190 44 fc 40 3d 10 87 b3 3d 04 70 56 be c4 32 ec bd
       0.04711558 0.087659955 -0.20941168 -0.1153312
0001a0 f7 14 a2 3d ec 5e a0 3c 2e 36 6c 3e c3 88 52 be
       0.07914155 0.019576512 0.23067543 -0.20559983
0001b0 51 b0 6c be 56 0a 10 3e 2b d2 74 bd 08 dd 13 be
       -0.23114134 0.14066443 -0.059770744 -0.14439785
0001c0 83 55 6d 3e 7d ae 56 be 14 7d f7 bd cb ce 23 3e
       0.23177151 -0.20965 -0.12084404 0.15996854
0001d0 f1 4e 73 3e 70 1f 08 be b4 65 2d be cc 66 7b 3d
       0.23760583 -0.13293242 -0.16933328 0.06137733
0001e0 26 95 c5 bc d6 06 23 be 01 68 1c be 72 a3 c5 bd
       -0.024118971 -0.15920576 -0.1527405 -0.09650315
0001f0 ad 3f 47 be 85 eb c7 3d 60 0b c1 bd 16 c0 22 be
       -0.19457884 0.09761719 -0.09425998 -0.15893587
000200 29 d9 2d be e1 af 14 be e3 fa 5e 3e 8d ee 01 3e
       -0.16977371 -0.14520217 0.21775393 0.12688656
000210 53 e3 17 bd e6 15 67 3e 46 af 95 bd bd 6b 50 3d
       -0.037082028 0.22566947 -0.073088214 0.050883997
000220 59 2d 6d bd 2b fd ab 3d 0a 5e 5c be 72 eb 50 be
       -0.057904575 0.08397897 -0.21520248 -0.20402315
000230 8e 4a f5 3d da 59 22 be d6 6f 40 3e 02 f5 77 be
       0.11977111 -0.15854588 0.18792662 -0.24214557
000240 3d b8 d0 bc d2 3d 68 3e fc 91 01 bd 87 81 c7 3d
       -0.025478477 0.22679833 -0.031633362 0.09741502
000250 25 50 4b bc bf 13 03 bd c6 cd 02 3e 06 75 af bd
       -0.012409245 -0.032001253 0.12773809 -0.08567242
000260 c1 d0 73 3e c7 3c b5 bb 27 5d 52 bd a9 f0 cb bd
       0.23810102 -0.005530927 -0.05135837 -0.09958012
000270 ea 3a 73 3e d6 ac 0b 3e 47 ee 1d 3e e8 fa 5e 3e
       0.23752943 0.1364015 0.15422927 0.217754
000280 0d dc 36 bd ea 76 2b bd d7 1b 9b 3d 80 32 0e be
       -0.04464345 -0.041861452 0.075736694 -0.13886452
000290 27 42 ef bd 24 c5 07 3e 69 4c d8 bd d2 a1 d7 bd
       -0.116825394 0.13258797 -0.10561449 -0.10528912
0002a0 b9 dc c5 bd 67 0c e0 3d a8 62 75 3c 3e 4b 4f 3e
       -0.0966124 0.109398656 0.014977135 0.20243546
0002b0 2d cf 51 3e 12 30 bf bd 5b 12 13 bd 4c 6d 2a 3e
       0.20489188 -0.093353406 -0.035906177 0.16643256
0002c0 d5 61 ec 3d ed fc 76 3e 96 a9 02 3e ec b4 00 be
       0.115420975 0.24119921 0.12760004 -0.12569016
0002d0 a7 a0 43 3e cc 8b 88 3b 42 eb 95 bd 62 e1 62 3e
       0.19104253 0.0041670557 -0.073202625 0.22156289
0002e0 27 6a 65 be 8d a6 3d 3e dd 00 40 be 85 08 16 bd
       -0.22403775 0.18520565 -0.1875033 -0.03662922
0002f0 77 d5 4f 3e a5 0a dc 3d 0e 66 1a be 0f dd 51 3e
       0.20296274 0.10744218 -0.15077993 0.20494483
000300 e8 50 25 3e ca 98 a8 bc 79 b8 03 be 7c d7 49 be
       0.16144145 -0.020580668 -0.1286334 -0.19711107
000310 e7 ad a1 bc 69 3a d6 3d 53 1f c8 bd 2d c0 2c 3e
       -0.019736243 0.104603596 -0.097715996 0.16870184
000320 58 7c 2e 3e 5f 55 e1 3c 7b 22 35 be 89 b0 34 bc
       0.17039621 0.027506528 -0.17688935 -0.011028417
000330 e5 b0 98 3d 95 7e 1d 3e 5c 24 ab 3d c4 80 80 be
       0.07455615 0.15380318 0.083565444 -0.2509824
000340 b2 79 53 be 29 e2 41 be c6 cf 0a be 01 1d cb 3d
       -0.20651892 -0.1893393 -0.13555822 0.099176414
000350 7b 24 97 bd 6c ec 3b be 6f c4 15 3e 5e 76 fc bd
       -0.07380005 -0.18351907 0.14625715 -0.12327264
000360 04 3b 0e 3e 81 32 af 3d 01 c9 d7 bc e0 ac e1 3d
       0.138897 0.08554555 -0.026340963 0.110193014
000370 1a df 5c 3e 35 fd 70 be 83 94 8a bd 25 2e 4d be
       0.21569481 -0.23534091 -0.067666076 -0.20037134
000380 94 8b a8 3d d3 4f a2 bd 76 34 4f 3e b2 61 d4 bc
       0.082297474 -0.079253815 0.20234856 -0.025925491
000390 dd 67 3c 3d 93 7c 74 3d 47 d5 29 3e 30 26 40 3e
       0.04599749 0.059689116 0.16585265 0.18764567
0003a0 51 9e 9f bd b5 77 31 3e ac 3b 05 be 71 95 05 3e
       -0.07793868 0.17330821 -0.13011044 0.13045289
0003b0 e9 6f 5b 3e e9 be c0 3d e4 ba 0c be f4 dc f8 3c
       0.21429409 0.09411413 -0.13743168 0.030378796
0003c0 18 d7 82 bd e5 c3 57 3e 45 5d 0f 3e 24 e1 03 3e
       -0.06388682 0.21070822 0.14000423 0.12878853
0003d0 7b 62 95 bd 0f 9c 6a 3e 0a eb 3c 3e f1 fc 3f 3d
       -0.07294174 0.22911094 0.18449035 0.046872083
0003e0 35 d2 23 3e b2 b2 1d be 7f c9 47 3e e0 61 2c 3d
       0.15998156 -0.15400198 0.19510458 0.04208553
0003f0 06 0c 20 be 73 00 26 bd f3 e4 bf 3d 89 5a 23 bd
       -0.15629587 -0.040527772 0.093698405 -0.039881263

attention.out_proj.bias f4 [16]
000000 ea b5 68 ba c3 78 12 bc 61 c5 5a 3c 6c 49 0f bc
       -0.0008877205 -0.008939925 0.013352723 -0.0087455325
000010 5d 74 93 bb 70 7c 6f b8 06 81 a7 39 ce e9 13 3a
       -0.0044999556 -5.7097932e-05 0.00031948852 0.00056424446
000020 b2 67 2c bc f5 c3 6d bb 79 93 24 3a 85 23 a2 bb
       -0.01052277 -0.003628013 0.00062780787 -0.004948082
000030 8d 95 a9 3b 9a ce b6 bb a4 e9 53 3a a2 68 d7 3b
       0.0051752985 -0.005578828 0.00080838264 0.0065737525
