results/attention_layer/checkpoints/attention_layer_results_method_adam_lr_0.001.pth (torch, 8056 bytes, 4 tensors)

attention.in_proj_weight f4 [48, 16]
00000000: 7210 0a3e 00cc fd3b 00bf 6bbe 60cf c1bd
00000010: eabd 723e 584f 5ebe d8c7 87be de43 8cbe
00000020: 76ed 2b3e f910 823e 18d1 00bd 2e78 673e
00000030: 00fe 133d 0c48 fdbd 809c b9bb c6e3 b2bd
00000040: 00e5 133d cc3f 0bbe 4aec 3fbe 60ba eebc
00000050: 3f59 17be 42fc 3f3e dc9a 6dbe ad1c 8a3e
00000060: 744b 123e dd38 883e d080 853c 565f 41be
00000070: 0b33 3abe 7cae 4cbe 74e4 0ebe 4bc7 8fbe
00000080: 068c f4bd e041 39bd 5e5a 093e c4cc 9bbe
00000090: 006e dc3b c0b8 9d3c 3350 8d3e 1836 703d
000000a0: a211 183e 5f58 9c3e 6073 ba3d d06b 57bd
000000b0: 88d8 673d a054 39bc 2789 11be 88a8 33be
000000c0: 78a0 423e 9075 473d e36f 7ebe 10a1 b3bc
000000d0: c0f6 1e3c 270c 8c3e 5d67 99be 8489 443e
000000e0: a00b c03c ba92 6cbe b145 67be 08b0 9dbd
000000f0: 8049 183e 16e5 76be 8002 093d a4d2 8ebe
00000100: 80dc c0bb d079 723d a094 e6bd e0ae fdbc
00000110: ee9b 7dbe fae5 66be 0be9 1fbe 7465 49be
00000120: fa7a 773e 0a38 74be e8c1 3ebd f4fc 06be
00000130: 5e47 043e fb46 8bbe 381d f73d c24d 433e
00000140: bad8 b1bd 9a49 733e acd8 d93d 2b0b 47be
00000150: 4067 a33b a9e5 11be e6aa 5bbe 9a9b 94be
00000160: d8f1 163e d0ad c9bc f2f8 063e 0839 0abd
00000170: 9993 9a3e d60a 07be 54eb 943d 1e27 c2bd
00000180: a876 2bbe 48a0 973d b2e5 5e3e 9093 2f3e
00000190: dc6a 3e3e 287d 7ebe 0025 e63b 9aba 3dbe
000001a0: 7e02 98bd ccda 92be c00a b03d 4891 52be
000001b0: 0c31 d9bd eeaf aabd 629c 473e f558 14be
000001c0: 7422 1b3e 44f2 66bd 1448 013e 1c09 2cbe
000001d0: 4050 353c 4457 303e 68ad 443d 2cfc 953d
000001e0: 08d5 083e 7454 f33d 3f4e 843e 4083 3fbc
000001f0: c21b 753e c008 8ebc 68e0 293e 34d4 3d3e
00000200: d3b1 993e 4070 febb 869b 86be 52b5 0b3e
00000210: 8939 973e c768 22be 34c7 80bd c8bb b2bd
00000220: 806c f53b c434 1a3e ab52 70be 00f3 0ebd
00000230: eea8 80bd c435 efbd 6289 9ebd f7ae 8cbe
00000240: 906b cd3c 1c74 083e 5c8e 7cbe f92c 843e
00000250: 0014 103d 6cec ab3d 04be 0bbe 1bf3 91be
00000260: caae 033e 7847 1d3e 20b6 5cbe b867 30bd
00000270: 18bf 723d 0cdb ba3d 38ce 18be 24cd b23d
00000280: f239 4c3e 98b3 2d3d 263e fdbd 14ef 1cbe
00000290: d02f 71be 6c40 76be a034 133d 8e2a 483e
000002a0: ae23 783e c002 c9bc e035 173e 8eda 1c3e
000002b0: 60fd cabc 1a8c 553e a291 2b3e 2f6a 7ebe
000002c0: c053 5cbc 08f9 093e 6e6d 5c3e 59bf 913e
000002d0: 2eb3 5b3e 80d9 31bd a064 c9bc 5709 8a3e
000002e0: eab9 3e3e 22b2 5cbe d686 743e 483f 68be
000002f0: 40fb fabd 9299 653e 7305 803e b4ec e53d
00000300: 1cae 6dbe a1a2 813e 3051 de3d c062 b1bd
00000310: 8fec 5dbe fd0f 873e 44c3 373e 215e 84be
00000320: 8643 633e 4e1b 51be bee1 3abe 181f cc3d
00000330: 68b5 5fbd 8c80 943d cbc9 8bbe ee95 1e3e
00000340: 823a 793e 804e babc 1ec6 533e 989a 3a3d
00000350: b898 16bd c0ee 2b3c 209d 11bd 3f04 39be
00000360: 003a e7bc acf7 23be 4a7f 033e 4ac6 613e
00000370: 5a57 593e 2893 eabd da68 533e 7ef5 273e
00000380: 2a49 563e e811 1cbd f58b 99be 004e 023a
00000390: 9e1f 563e 706e 7fbd c04a 3abd ecb6 96be
000003a0: bc5c 7dbd 40ba 053c 0e4f 053e aae6 4cbe
000003b0: eeac 703e d4a3 a43d 52ae fcbd feca ebbd
000003c0: 38b6 693d 3e98 fbbd c3f6 99be 2c48 ff3d
000003d0: 3f41 8ebe e234 97bd 0e78 98be 3495 bcbd
000003e0: e936 6dbe 15e4 8f3e 78c6 343d 8009 25bb
000003f0: c5d3 87be 0c41 8dbe 003b 893d ec2c dc3d
0.13482836 0.007745266 -0.2302208 -0.09463382 0.23705259 -0.21709955 -0.26519656 -0.2739553
0.16789803 0.25403574 -0.031449407 0.22604439 0.036130905 -0.123672575 -0.005664408 -0.087348506
0.036107063 -0.13598555 -0.18742481 -0.029141605 -0.14780138 0.18748572 -0.23203605 0.26975003
0.14286596 0.26605883 0.016296774 -0.18884024 -0.18183534 -0.19988436 -0.13954335 -0.28081736
-0.1194077 -0.04522884 0.13413379 -0.3042966 0.00672698 0.019253135 0.2760025 0.058645338
0.14850476 0.30536172 0.09104037 -0.052593052 0.056602985 -0.01131168 -0.14212476 -0.17544758
0.19006526 0.0486961 -0.24847369 -0.021927387 0.0097023845 0.27353022 -0.29961672 0.19193083
0.023443043 -0.23102847 -0.22585179 -0.07699591 0.14871788 -0.24110827 0.03344965 -0.2789508
-0.0058856606 0.0591982 -0.11258817 -0.030967176 -0.24766514 -0.22548667 -0.15616243 -0.19667608
0.24168006 -0.23849502 -0.046571642 -0.13182431 0.1291785 -0.2720259 0.1206612 0.19072631
-0.086839154 0.23758546 0.1063703 -0.19437854 0.0049866736 -0.14247765 -0.21451911 -0.29024965
0.14740694 -0.024619013 0.13180903 -0.033745795 0.30190733 -0.13187727 0.07271448 -0.09480117
-0.16744483 0.07403618 0.2176731 0.17146134 0.18595451 -0.24852431 0.0070234537 -0.18528214
-0.0742235 -0.28682554 0.085958004 -0.20563233 -0.10605058 -0.08334337 0.19493249 -0.1448706
0.15149862 -0.056383386 0.12625152 -0.1680035 0.011066496 0.17220789 0.048016936 0.073234886
0.13362515 0.118813425 0.25840947 -0.011689007 0.2393637 -0.017338157 0.1658951 0.1853798
0.30018482 -0.007764846 -0.2629053 0.13643387 0.29536083 -0.15860282 -0.06287995 -0.08727223
0.007489741 0.15059191 -0.23469035 -0.03489971 -0.06282221 -0.11680177 -0.077410474 -0.27477238
0.025075704 0.13325542 -0.24663681 0.2581556 0.035175323 0.08394703 -0.13646704 -0.28505787
0.12859645 0.15359294 -0.2155385 -0.043067664 0.059264272 0.09123811 -0.14922416 0.08730534
0.1994398 0.042407602 -0.123653695 -0.15325576 -0.23553395 -0.24048012 0.03593886 0.19547483
0.2423236 -0.024537444 0.14766645 0.15317747 -0.024779022 0.20854226 0.16754773 -0.24845193
-0.013447702 0.13473904 0.21526119 0.284663 0.2145507 -0.043420315 -0.024584115 0.2696025
0.18625608 -0.21552327 0.23879561 -0.2268039 -0.122549534 0.22421864 0.25004157 0.11226788
-0.23210949 0.25319389 0.10855329 -0.08661413 -0.21672271 0.26379386 0.17945582 -0.25853065
0.22193727 -0.20420572 -0.18250176 0.09966868 -0.05461636 0.07251081 -0.27302393 0.15486881
0.24338725 -0.02274251 0.20681044 0.04555759 -0.036766738 0.010493934 -0.035550237 -0.18068026
-0.028225899 -0.16012448 0.12841526 0.22048298 0.21224728 -0.11453849 0.20645466 0.16402242
0.20926347 -0.038103014 -0.2998959 0.00049707294 0.20910498 -0.06236118 -0.045481443 -0.29436433
-0.061856017 0.008162081 0.13018438 -0.20009866 0.23503467 0.0803906 -0.123379365 -0.11513327
0.057058543 -0.12284897 -0.30071077 0.124649376 -0.27784154 -0.073831335 -0.29779094 -0.09208146
-0.23165478 0.281037 0.044134587 -0.0025182664 -0.26528755 -0.2758869 0.067007065 0.10750756

attention.in_proj_bias f4 [48]
00000000: 0000 0000 0000 0000 0000 0000 0000 0000
00000010: 0000 0000 0000 0000 0000 0000 0000 0000
00000020: 0000 0000 0000 0000 0000 0000 0000 0000
00000030: 0000 0000 0000 0000 0000 0000 0000 0000
00000040: 0000 0000 0000 0000 0000 0000 0000 0000
00000050: 0000 0000 0000 0000 0000 0000 0000 0000
00000060: 0000 0000 0000 0000 0000 0000 0000 0000
00000070: 0000 0000 0000 0000 0000 0000 0000 0000
00000080: 0000 0000 0000 0000 0000 0000 0000 0000
00000090: 0000 0000 0000 0000 0000 0000 0000 0000
000000a0: 0000 0000 0000 0000 0000 0000 0000 0000
000000b0: 0000 0000 0000 0000 0000 0000 0000 0000
0.0 0.0 0.0 0.0 0.0 0.0 0.0 0.0
0.0 0.0 0.0 0.0 0.0 0.0 0.0 0.0
0.0 0.0 0.0 0.0 0.0 0.0 0.0 0.0
0.0 0.0 0.0 0.0 0.0 0.0 0.0 0.0
0.0 0.0 0.0 0.0 0.0 0.0 0.0 0.0
0.0 0.0 0.0 0.0 0.0 0.0 0.0 0.0

attention.out_proj.weight f4 [16, 16]
00000000: 8521 a93c b042 60bc f998 4b3c d9af 27bc
00000010: a62f 12ba dca7 64bd 5349 25bc cd9f 46bc
00000020: e527 cebc 1878 3e3d f4c9 76bc 8588 f5bc
00000030: faae c23b 98f3 52bd df67 06bc d4cc 2f3d
00000040: a8fb 04bc 3e3f ee3b a239 343d 308e 8abc
00000050: 1cd0 243d ec95 82bc eb35 8c3d 2af0 bf3c
00000060: d676 26bc bc78 b6bc 20b6 7bbd 4e47 2fbd
00000070: 3842 753d 8978 013d d685 ab3d a32c 063d
00000080: a6f5 823c 9826 8cbc 304c ff3b 0976 06bd
00000090: e0df 0f3b 696a 02bd 3aa6 11bc aa96 26bd
000000a0: f8e1 033d 18e7 d13c 4c5a a23b 512d 8ebc
000000b0: aedf 58bb 05d6 c0bc b543 a6bc 059f 09bc
000000c0: 60dc 413c d169 3bbd da3b 493d dcab 353a
000000d0: d8ea d83c b0a8 43bc be20 143d 9de5 62bb
000000e0: d5eb 2f3d 8619 e6bb 78e1 b3bc d224 9abc
000000f0: 516a f03d 7de4 163d 1c52 a03d 40a4 abbc
00000100: 36c5 71bd ec80 db3d 178e 87bd 410c 6e3d
00000110: 108f d9bc e568 8e3d 8f9b 48bd f10f eb3d
00000120: a65a 64bd 1852 dcbd d9db 9a3c 7b73 3e3d
00000130: fb6a 25be 1f2c 173d 2b05 c3bd aebd 30bd
00000140: bc7f 1d3d a43e eebc 34a3 bd3c 7814 8fbc
00000150: 4725 f2bc 36b2 42bd 0d3f 2dbd 886b a6bd
00000160: 608a 2d3d 850e 9f3d db65 9b3c bedc 01bc
00000170: c461 f839 fdfd edbc b5e0 69bd 5960 003c
00000180: da26 0e3b 28cf 053d c660 2dbd b316 1e3d
00000190: 41a1 5cbd c9ad ff3a 1610 d3bd e3a0 3ebd
000001a0: c193 bcbc 423c d7ba 9ea9 5f3d 4ed7 533c
000001b0: 3ce3 d1bd 0a73 79bc a732 05be fef3 02bd
000001c0: 3793 b23c ee00 fbbb 701a 69ba 536e 54bc
000001d0: 9606 88bc af16 31bc c54b 5cbd 9d9e 23bd
000001e0: 4a9c 4c3c eab6 043d 8ae6 203d 1c8f 0abb
000001f0: 7df1 84bd 0536 c1bc b929 86bd 2c4c ec3b
00000200: 3f84 12bc 8565 b8bc c168 463d 49c9 9cbc
00000210: 2eeb 7f3d 50d8 1b3c 83ee a73d acfb cb3c
00000220: 1183 7c3b 645a 8c3c ce70 37bd 3c96 85bc
00000230: d164 1a3e a5e5 dc3c de38 fe3d 2c79 143c
00000240: 121a 41bb ef6d 9e3b 3426 873d d180 c5bc
00000250: 943d 533d 4ed6 a7bc 8d1b 103e 0bec 6a3d
00000260: 67a5 9c3c 117c 323b dd96 b6bd a5f6 72bc
00000270: 7da1 0e3e 9e84 fb3c 217f 133e b5f8 7a3d
00000280: 87c8 543d 56c5 f4bc 4d9e 6e3d 68cf 2bbd
00000290: 52f1 583c d5e8 0abc d4d4 25bc 729a 58bd
000002a0: 01ab 793d 6a71 843d cbba 893c 779f 01bc
000002b0: fc16 343d dbaf ccbc f543 1cbc 5353 13bc
000002c0: 168e 30bc 199b ce3b 2768 d13b 4e18 f8bc
000002d0: e070 003d be83 bb3c 203f b33d bd6e 723d
000002e0: f3b7 563c b281 c83c 7862 f9bc 273d 11bc
000002f0: bd1f 873d 0020 0b3d 212a b73d 92d0 093d
00000300: f62a 1939 2e7a 743c cbde 1e3d a703 753b
00000310: 68e4 353d 1778 b83c 3a5b f63c 0a18 533d
00000320: c2f0 493c 2a4b 5ebc 3e48 05bd 5337 eabc
00000330: 720c ae3d d4c0 9c3c 5715 723d d642 003d
00000340: 6a14 283c 4775 eabc f4ea 613d d6d7 cdbc
00000350: 7e6d 4bbc f377 1fbd 1852 c23a 64b9 8fbd
00000360: 434f 023d e69c 583d 728a 54bc 7f54 0cbb
00000370: af20 523d 48ac dfbc debf 98bb ef78 553c
00000380: d5c3 84bd 6703 fdbb 7c33 b0bc b8d9 7e3b
00000390: 8e00 2a3d d215 863c 2412 363d 7322 203d
000003a0: ca4e 94bb 7a26 87bc f402 84bc 66b6 a03c
000003b0: 63f1 aa3d 72e2 993d 6537 bc3d 6260 debc
000003c0: 0444 75bd 8854 e63d 88ee 11bd d26f 553d
000003d0: 267b ec3c 11ec 2a3d 7530 eb3c c899 133e
000003e0: d15f 42bd a52d f5bd 2e70 e5bc 2146 613d
000003f0: 2fc2 82bd 4222 513d aff9 bc3b f777 3dbd
0.020645866 -0.013687775 0.012426608 -0.010234796 -0.0005576558 -0.055824146 -0.010088283 -0.01212306
-0.025165508 0.04650125 -0.015062798 -0.029972324 0.005941269 -0.05150184 -0.008203476 0.04291995
-0.00811664 0.0072707226 0.044000275 -0.016913503 0.04023753 -0.015940629 0.068462215 0.023429949
-0.010160169 -0.022274368 -0.061452985 -0.04279261 0.059877604 0.031609092 0.083751366 0.032757413
0.015986275 -0.017108247 0.0077910647 -0.03282741 0.0021953508 -0.031839762 -0.008889729 -0.04067103
0.032197922 0.02562289 0.004954612 -0.017355593 -0.0033092308 -0.023539552 -0.020295957 -0.00839973
0.011832327 -0.04575521 0.049129345 0.0006930211 0.02647917 -0.011942074 0.036164038 -0.0034621723
0.042949516 -0.0070220856 -0.021958098 -0.018816385 0.11739028 0.036838997 0.07828161 -0.020952344
-0.059025966 0.10717949 -0.06618898 0.058117155 -0.026557475 0.06953601 -0.048976477 0.1147765
-0.05575051 -0.10757846 0.01890366 0.04649685 -0.16154091 0.03690731 -0.0952247 -0.043149643
0.038451895 -0.029082604 0.02314911 -0.017465815 -0.02955879 -0.047533236 -0.042296458 -0.08125979
0.042368293 0.07766441 0.018969467 -0.007926164 0.00047375087 -0.029051775 -0.057099063 0.007835471
0.0021690638 0.032668263 -0.04232862 0.038595866 -0.05386472 0.0019506748 -0.103058025 -0.046540152
-0.023019673 -0.0016421156 0.05460512 0.012929751 -0.1024842 -0.015225181 -0.13007604 -0.03197097
0.021798713 -0.007660023 -0.0008892184 -0.0129657565 -0.016604703 -0.010808631 -0.053783197 -0.039946187
0.012488434 0.032401003 0.03928236 -0.0021142429 -0.06491373 -0.023585329 -0.06550927 0.007211229
-0.008942663 -0.022509346 0.048439745 -0.019138949 0.062480144 0.009512022 0.081997894 0.02490028
0.003853027 0.017132945 -0.044785313 -0.016306989 0.15077521 0.026964972 0.1241319 0.009062093
-0.0029465002 0.0048348824 0.065990835 -0.024109276 0.051572397 -0.02048793 0.1407301 0.057354014
0.019121839 0.0027234594 -0.08915494 -0.014829312 0.1392879 0.030702885 0.14403965 0.06127234
0.05194905 -0.029879253 0.058256436 -0.041945845 0.013241129 -0.008478363 -0.010121543 -0.052881666
0.060954098 0.064669445 0.016812703 -0.007911555 0.043967232 -0.024986198 -0.009537687 -0.008992034
-0.010776063 0.00630511 0.0063905898 -0.030285027 0.031357646 0.022889968 0.087522745 0.05918764
0.01310538 0.024475906 -0.030442461 -0.0088646775 0.065978505 0.033966064 0.08943582 0.033646174
0.00014607221 0.014921708 0.03878669 0.003738621 0.04440728 0.0225182 0.030072797 0.051536597
0.012325468 -0.013567725 -0.0325396 -0.028590834 0.084984675 0.019134916 0.059102383 0.03131374
0.010258773 -0.028620375 0.05515571 -0.025127333 -0.012416242 -0.038932752 0.0014825491 -0.07017782
0.03181387 0.052884005 -0.012972461 -0.0021412668 0.0513007 -0.02730383 -0.004661544 0.013029321
-0.064826645 -0.007721353 -0.021508925 0.0038887095 0.041504435 0.016367827 0.044450894 0.039095353
-0.004525994 -0.01649784 -0.01611469 0.019618224 0.08346822 0.07513894 0.09190253 -0.027145568
-0.059879318 0.11246592 -0.03562787 0.052108593 0.028867316 0.041729037 0.02870963 0.14414132
-0.04745466 -0.11971597 -0.028007593 0.05499852 -0.06384694 0.05105806 0.0057670693 -0.046256986

attention.out_proj.bias f4 [16]
00000000: 6860 c039 f4e3 05bc 16f3 543c f700 e4bb
00000010: b756 8bbb 86af f0b9 4729 4e3a f551 6a3a
00000020: b611 0abc 8f82 74bb a63b bfb9 a75d 58bb
00000030: 7e4b b43b 07e1 d8bb dc00 2f3a 7ab9 eb3b
0.00036692922 -0.008172024 0.012997409 -0.006958123 -0.0042522806 -0.00045907142 0.0007864427 0.0008938604
-0.008427074 -0.0037309264 -0.000364748 -0.0033014806 0.0055021634 -0.006618622 0.0006675848 0.0071937414
