results/attention_layer/checkpoints/attention_layer_results_method_GD+GradReg_lr_0.5_variant_GradReg_L_1.0_reg_0.01.pth (torch, 8720 bytes, 4 tensors)

attention.in_proj_weight f4 [48, 16]
0	0xbd5273a2	-0.051379807
1	0x3e9da477	0.3078954
2	0xbecc2833	-0.3987442
3	0xbeb3a0a3	-0.35083494
4	0x3f71cde4	0.9445479
5	0xbf3c036d	-0.7344273
6	0xbf0a748d	-0.5408409
7	0xbf0f6c8e	-0.56025016
8	0x3f59ee47	0.8512921
9	0x3dd0c5b6	0.1019396
10	0x3e996848	0.29962373
11	0x3e028786	0.1274701
12	0xbdbd71f5	-0.09250251
13	0xbf232c08	-0.6373906
14	0xbf381746	-0.7191051
15	0x3ed0411c	0.40674675
16	0xbf1b5b65	-0.6068633
17	0xbeb296fa	-0.3488081
18	0xbd2d08f8	-0.04224488
19	0x3eb8c301	0.36086276
20	0xbf265e9b	-0.64988106
21	0x3e4e2891	0.20132662
22	0xbdfa963f	-0.122356884
23	0x3f02388b	0.5086753
24	0x3dee96e0	0.11649871
25	0x3d8d08b5	0.06886426
26	0xbdbb41ab	-0.091433845
27	0x3e169f46	0.14709195
28	0xbea87977	-0.3290517
29	0xbf4e8895	-0.8067716
30	0xbf4d16e5	-0.8011306
31	0xbf92db52	-1.1473181
32	0xbf1c5a52	-0.6107532
33	0xbefb762e	-0.491136
34	0x3e84ef02	0.25963598
35	0xbe5cd067	-0.21563874
36	0x3e109470	0.14119124
37	0xbddd57da	-0.10807772
38	0x3f156d51	0.5836993
39	0xbe96682e	-0.29376358
40	0x3ead46c0	0.3384304
41	0x3f944335	1.158301
42	0xbeb09ed4	-0.34496176
43	0xbef1e402	-0.4724427
44	0x3ef4d79b	0.47820744
45	0x3e2d446e	0.16920635
46	0x3c7174f3	0.0147373555
47	0xbe324024	-0.1740728
48	0x3f409489	0.75226647
49	0xbe3896f8	-0.1802634
50	0xbe23110a	-0.15924469
51	0x3e7e3d38	0.2482804
52	0x3e8d2ecf	0.27574775
53	0x3f917e01	1.1366578
54	0xbf41912f	-0.7561216
55	0x3f4fc504	0.81159997
56	0x3e6b2d69	0.22966541
57	0xbe049fe0	-0.12951612
58	0xbf387e5b	-0.72067803
59	0xbe9e5295	-0.3092238
60	0x3ef1ba6d	0.47212544
61	0xbf50f2a8	-0.81620264
62	0x3df14ac4	0.117818385
63	0xbf1b8dd7	-0.60763305
64	0x3e5fb167	0.21845017
65	0xbe7c147c	-0.24617189
66	0x3e1e9578	0.15486705
67	0x3e9871b8	0.2977426
68	0xbe943554	-0.28946936
69	0xbf33da0f	-0.70254606
70	0xbf6c2970	-0.9225073
71	0xbe64fc46	-0.2236186
72	0x3f387362	0.7205106
73	0xbf3dac05	-0.74090606
74	0xbd935512	-0.0719396
75	0xbe71ae00	-0.23601532
76	0x3f32ec42	0.6989175
77	0xbebf36d8	-0.3734653
78	0xbea0d747	-0.31414244
79	0x3ee30a99	0.44344023
80	0xbe8c1c26	-0.27365226
81	0x3f3e34b5	0.74299175
82	0x3f30667e	0.6890639
83	0xbeb8c93e	-0.36091036
84	0x3edee202	0.43531805
85	0xbef18e51	-0.4717889
86	0xbf80d2b8	-1.0064306
87	0xbea27726	-0.31731528
88	0xbe4100b5	-0.18847926
89	0x3e51289b	0.20425646
90	0x3f393099	0.7233978
91	0x3cf52e64	0.029929347
92	0x3f386421	0.72027785
93	0xbe388b75	-0.18021949
94	0xbd1a38a7	-0.037651684
95	0x3daf0e3a	0.085476354
96	0xbf064a70	-0.5245733
97	0xbdc0e08f	-0.09417831
98	0xbe149a7f	-0.1451206
99	0x3e27dcc9	0.16392817
100	0x3e968a56	0.29402417
101	0xbf11a877	-0.5689768
102	0xbead7c55	-0.3388392
103	0xbe6c758f	-0.2309172
104	0x3e9b9ce0	0.30393124
105	0xbf9891a8	-1.1919451
106	0x3e801976	0.25019425
107	0xbedcfde8	-0.43162465
108	0x3e088560	0.13332129
109	0x3d102154	0.035188034
110	0x3f043a86	0.516518
111	0xbea8686a	-0.32892162
112	0xbe097c16	-0.13426241
113	0x3e01035e	0.1259894
114	0x3d043d9d	0.03228532
115	0x3d0bf3df	0.03416812
116	0xbe8d7f2d	-0.2763609
117	0xbe380ba2	-0.17973188
118	0x3eab6090	0.3347211
119	0x3ec3777f	0.38177106
120	0x3e9c7528	0.30558133
121	0xbe8656fd	-0.26238242
122	0x3e396c9d	0.18107839
123	0x3e330fe5	0.17486532
124	0x3f4acd10	0.7921915
125	0xbd588851	-0.052864376
126	0x3ec1127d	0.37709418
127	0x3c7bc43d	0.015366611
128	0x3f4a400a	0.79003966
129	0xbf0fcb03	-0.56169146
130	0xbd23191c	-0.039818868
131	0xbe06bb94	-0.13157493
132	0x3f711b0b	0.9418189
133	0xbf2b8031	-0.6699248
134	0x3e2e3fc2	0.17016509
135	0xbeabe79f	-0.3357515
136	0xbe602f49	-0.21893038
137	0x3cb29bf8	0.021802887
138	0xbde55e2c	-0.111996025
139	0x3e8677e4	0.26263344
140	0xbe5e6412	-0.21717861
141	0xbf03b3bc	-0.5144613
142	0xbf4b2982	-0.7936021
143	0xbf0e3051	-0.55542475
144	0x3f28f47a	0.6599804
145	0x3f28cf44	0.6594126
146	0xbec88b37	-0.39168712
147	0x3f64a405	0.89312774
148	0x3ebfe9fa	0.37483197
149	0x3e9916cd	0.29900208
150	0xbef41797	-0.47674248
151	0xbf1a4d2c	-0.60274005
152	0x3f428500	0.7598419
153	0x3f09219a	0.53566897
154	0xbe5f322d	-0.21796484
155	0xbd081e1a	-0.033231832
156	0x3ebc91b0	0.368299
157	0x3d74fa3f	0.059808966
158	0xbed234e4	-0.41055977
159	0x3d174069	0.03692666
160	0x3eeef4f1	0.4667125
161	0xbd1c00e6	-0.038086794
162	0x3e29d673	0.16585712
163	0xbec67e0e	-0.38768047
164	0xbd80f746	-0.06297164
165	0xbf6beccb	-0.9215819
166	0x3e32cc72	0.17460802
167	0x3f091abc	0.5355642
168	0x3f63bdbd	0.8896139
169	0x3e0c270b	0.13686769
170	0x3ecbf3d8	0.39834476
171	0x3f286b72	0.6578895
172	0xbeb3c811	-0.35113576
173	0x3d9778b4	0.07396069
174	0x3f2994cf	0.6624269
175	0xbf1130be	-0.56715
176	0x3e07c99a	0.13260499
177	0xbe2df8d8	-0.16989458
178	0x3f1d7a16	0.61514413
179	0x3e9e85a6	0.3096134
180	0x3e0b65aa	0.13613
181	0xbe02b28a	-0.1276342
182	0x3eaa9a70	0.3332095
183	0x3ec17dce	0.37791294
184	0x3f086c51	0.5329028
185	0xbf49f87e	-0.78894794
186	0xbde9da75	-0.114186205
187	0xbf7bcea6	-0.98362195
188	0xbf25fc8c	-0.6483848
189	0xbcede30f	-0.029038934
190	0x3ed9ac07	0.4251406
191	0xbe014124	-0.12622505
192	0xbe205c1c	-0.15660137
193	0xbd58436c	-0.052798674
194	0xbdfa352c	-0.12217173
195	0x3e35a199	0.17737426
196	0xbeef1081	-0.4669228
197	0x3f5c90fb	0.8615872
198	0x3f02a6d1	0.5103579
199	0xbf24099b	-0.64077157
200	0x3f26faaa	0.65226233
201	0xbefe0355	-0.49611917
202	0xbf07c5eb	-0.53036374
203	0x3e996347	0.29958555
204	0xbe83c9ec	-0.25739992
205	0x3eb461d7	0.35230896
206	0xbf37ec80	-0.71845245
207	0x3eb56e42	0.35435683
208	0x3f0c9f54	0.54930615
209	0xbf15956f	-0.5843114
210	0x3f2e7ff2	0.6816398
211	0xbe6f798a	-0.23386207
212	0xbf1c7944	-0.61122537
213	0x3e0aac40	0.1354227
214	0xbe5d5229	-0.21613373
215	0xbf7b165d	-0.98081
216	0xbe919da4	-0.28440583
217	0x3de5fca2	0.112298265
218	0x3f2a48bb	0.6651723
219	0x3ea8bebb	0.32958016
220	0x3e324044	0.17407328
221	0xbcb18f92	-0.021674905
222	0x3e88a868	0.26690984
223	0xbd6b7c41	-0.057491545
224	0x3e82631e	0.25466245
225	0xbeab16db	-0.33415875
226	0xbf553b8d	-0.8329399
227	0x3e99695b	0.29963192
228	0x3f3a08aa	0.7266947
229	0xbdd68a69	-0.104756184
230	0x3e86a569	0.26298073
231	0xbecfb3c0	-0.40566826
232	0xbe709fc3	-0.23498444
233	0xbea88c64	-0.3291961
234	0x3e07b3f1	0.13252236
235	0xbf21d5a5	-0.6321662
236	0x3f25370e	0.6453713
237	0x3e676b6d	0.22599573
238	0xbe8ec38a	-0.2788356
239	0xbf2e1273	-0.679969
240	0x3e403ae1	0.1877246
241	0xbebf6586	-0.37382144
242	0xbf14f273	-0.5818245
243	0x3ed09db4	0.40745318
244	0xbedc6758	-0.43047595
245	0xbcdaccef	-0.026709048
246	0xbf3138a5	-0.6922706
247	0x3de945ee	0.11390291
248	0xbe728503	-0.23683552
249	0x3f343a91	0.70401865
250	0x3e431cee	0.19054005
251	0x3e79c35e	0.24390933
252	0xbf713cbe	-0.9423331
253	0xbe51a5f0	-0.20473456
254	0x3c75c0c3	0.014999571
255	0xbe119711	-0.14217784

attention.in_proj_bias f4 [48]
0	0x00000000	0.0
1	0x00000000	0.0
2	0x00000000	0.0
3	0x00000000	0.0
4	0x00000000	0.0
5	0x00000000	0.0
6	0x00000000	0.0
7	0x00000000	0.0
8	0x00000000	0.0
9	0x00000000	0.0
10	0x00000000	0.0
11	0x00000000	0.0
12	0x00000000	0.0
13	0x00000000	0.0
14	0x00000000	0.0
15	0x00000000	0.0
16	0x00000000	0.0
17	0x00000000	0.0
18	0x00000000	0.0
19	0x00000000	0.0
20	0x00000000	0.0
21	0x00000000	0.0
22	0x00000000	0.0
23	0x00000000	0.0
24	0x00000000	0.0
25	0x00000000	0.0
26	0x00000000	0.0
27	0x00000000	0.0
28	0x00000000	0.0
29	0x00000000	0.0
30	0x00000000	0.0
31	0x00000000	0.0
32	0x00000000	0.0
33	0x00000000	0.0
34	0x00000000	0.0
35	0x00000000	0.0
36	0x00000000	0.0
37	0x00000000	0.0
38	0x00000000	0.0
39	0x00000000	0.0
40	0x00000000	0.0
41	0x00000000	0.0
42	0x00000000	0.0
43	0x00000000	0.0
44	0x00000000	0.0
45	0x00000000	0.0
46	0x00000000	0.0
47	0x00000000	0.0

attention.out_proj.weight f4 [16, 16]
0	0xbe9bc75b	-0.30425534
1	0x3c908c62	0.017645065
2	0xbd7a3f69	-0.06109563
3	0x3d884fdf	0.06655859
4	0x3d209a6b	0.039209764
5	0xbf0b4af3	-0.5441124
6	0xbf1b3410	-0.60626316
7	0x3f3f699c	0.7477052
8	0x3eb85396	0.3600127
9	0xbda52d8e	-0.080653295
10	0x3ea812e9	0.32826927
11	0xbf22a6ff	-0.63536066
12	0x3eada698	0.33916163
13	0xbe89ea00	-0.2693634
14	0x3e862e4b	0.26207194
15	0xbd0bd46d	-0.034138132
16	0xbdf1b869	-0.118027516
17	0xbf1d7bbd	-0.61516935
18	0x3eab7242	0.3348561
19	0xbeeba27a	-0.46022397
20	0x3f42607d	0.7592848
21	0x3d446b65	0.047953982
22	0x3ef44aa8	0.47713208
23	0x3e8a1189	0.26966503
24	0x3dd6930b	0.10477265
25	0xbefa9293	-0.48939952
26	0x3ef69c7e	0.4816627
27	0x3ee7610e	0.45191234
28	0x3ead7094	0.33874953
29	0xbe5952a3	-0.2122293
30	0x3ead0f17	0.33800575
31	0xbdb779be	-0.08958767
32	0x3f0d97b3	0.553096
33	0x3f054bf0	0.52068996
34	0xbd550fed	-0.05201714
35	0xbe99d876	-0.3004796
36	0x3ea33f02	0.3188401
37	0xbe3a9613	-0.18221311
38	0x3f26736b	0.65019864
39	0xbea53bf1	-0.32272294
40	0x3e44af4a	0.19207492
41	0xbeb232bd	-0.34804335
42	0xbef7154c	-0.48258436
43	0xbed136c5	-0.40862098
44	0xbd195436	-0.037433825
45	0xbf3d9d71	-0.7406836
46	0xbf11f42a	-0.5701319
47	0x3e6c9835	0.23104937
48	0x3f069162	0.52565587
49	0x3e9f73ba	0.3114298
50	0x3f207e51	0.62692744
51	0xbdae4522	-0.0850928
52	0xbdefa6ee	-0.11701761
53	0x3e5a62c6	0.21326742
54	0x3ea1a482	0.31570822
55	0xbf090fc7	-0.535397
56	0xbf1e5120	-0.61842537
57	0x3e9374a6	0.28799933
58	0xbe189a9e	-0.14902732
59	0xbf032165	-0.5122283
60	0x3eb1cd6c	0.34727037
61	0x3eb15a65	0.34639278
62	0x3eabb9b7	0.33540127
63	0xbedad427	-0.42739984
64	0xbf2f6dc1	-0.68526846
65	0x3eafe4f5	0.34354368
66	0xbec7894a	-0.3897193
67	0xbeefe046	-0.46850795
68	0x3e871808	0.26385522
69	0x3ee89a39	0.45430163
70	0x3e5ae299	0.21375503
71	0x3d9c6293	0.07635989
72	0xbe99bd9e	-0.3002748
73	0x3ed2630d	0.41091195
74	0xbebe8f0f	-0.3721852
75	0x3eff6cca	0.49887687
76	0xbf2284ed	-0.6348408
77	0x3dd6c59e	0.10486911
78	0xbecfbaa0	-0.4057207
79	0xbe9d6a64	-0.30745232
80	0x3e9a8564	0.30179894
81	0xbcf2aff6	-0.02962492
82	0xbf1025f0	-0.5630789
83	0xbee877ec	-0.45403993
84	0xbe68b328	-0.22724593
85	0x3f1be333	0.60893553
86	0xbe9b09f4	-0.3028103
87	0xbecfbc7d	-0.40573493
88	0x3e90672a	0.28203708
89	0xbe8801e7	-0.2656395
90	0x3c40ca8e	0.011767043
91	0xbe9598a9	-0.29218033
92	0x3f32e865	0.69885856
93	0x3e611fe5	0.21984823
94	0xbee2cf1b	-0.44298634
95	0xbf1bf818	-0.60925436
96	0x3cb8705d	0.022514516
97	0x3e089c8e	0.13340971
98	0x3eef1945	0.46698967
99	0xbf0ce20f	-0.5503244
100	0x3e59c9af	0.21268342
101	0x3df46419	0.119331546
102	0xbf01f44a	-0.5076338
103	0xbea50458	-0.32229877
104	0x3eab3419	0.33438185
105	0x3e4142bb	0.18873112
106	0x3f30b3b5	0.6902421
107	0xbf115da3	-0.56783503
108	0xbf16481e	-0.5870379
109	0x3eaa71ac	0.3328985
110	0xbe8f68d9	-0.2800968
111	0xbea9176d	-0.33025685
112	0x3f1a4e39	0.6027561
113	0xbf22c324	-0.6357901
114	0xbe8de397	-0.277127
115	0x3f0bf2c4	0.54667306
116	0x3f166400	0.5874634
117	0xbe75e26d	-0.24012156
118	0xbeaad3c5	-0.33364692
119	0x3dcbe258	0.09955281
120	0xbdb65856	-0.089035675
121	0xbf0075c4	-0.50179696
122	0xbee96958	-0.45588183
123	0xbe6110f1	-0.21979119
124	0xbee6e576	-0.4509694
125	0x3ea4c171	0.32178834
126	0xbea3fcfe	-0.32028955
127	0xbeb3378c	-0.35003316
128	0xbef9bf5f	-0.48778817
129	0xbe99e596	-0.30057973
130	0x3f0cfdbf	0.55074686
131	0x3e98807a	0.2978552
132	0xbd8fbf8f	-0.07018959
133	0x3f23ed22	0.6403371
134	0xbe34c467	-0.17653047
135	0x3e1b5f01	0.1517296
136	0xbe4506f9	-0.19240941
137	0x3debc4bb	0.11512133
138	0xbf23d953	-0.64003485
139	0xbf1980a7	-0.5996193
140	0x3e758191	0.23975207
141	0xbf0d04b4	-0.550853
142	0x3f03b6e8	0.5145097
143	0xbf10ab91	-0.5651179
144	0xbe40f2a5	-0.18842562
145	0x3f136521	0.57576185
146	0xbe4642b9	-0.1936139
147	0x3e60d879	0.21957578
148	0x3ce0d0aa	0.027443249
149	0xbd85c23f	-0.0653119
150	0x3ed94916	0.42438573
151	0xbe7f11b1	-0.24909092
152	0x3f25a758	0.6470847
153	0xbdb8c8d9	-0.09022684
154	0xbe37cecb	-0.17949979
155	0xbe84afc0	-0.25915337
156	0x3f222d38	0.6335025
157	0x3f1699dc	0.5882852
158	0x3f01f66f	0.5076665
159	0x3f190b30	0.59782696
160	0x3ccc8fff	0.024971006
161	0xbea1a709	-0.3157275
162	0x3e19be28	0.15013945
163	0xbec19e79	-0.37816218
164	0xbed932b5	-0.424215
165	0x3ef45fd0	0.4772935
166	0xbecc2e9f	-0.3987932
167	0xbe8e7cc1	-0.27829555
168	0xbe2d85d0	-0.16945577
169	0x3e787026	0.24261531
170	0x3dbcbc54	0.09215608
171	0x3ef166d0	0.47148752
172	0x3efea77c	0.49737155
173	0xbea5a5cf	-0.32353064
174	0xbe041aa7	-0.12900792
175	0x3f1e42a9	0.61820465
176	0x3dbf8c23	0.09352901
177	0x3f030d80	0.51192474
178	0x3e9cf4e2	0.3065558
179	0xbeaa59f1	-0.33271745
180	0x3ef63599	0.48087767
181	0x3b2245b8	0.0024760794
182	0xbe543ef9	-0.20727147
183	0x3f2b2aaf	0.66862005
184	0xbefc6384	-0.49294674
185	0x3ec1d3bd	0.37856856
186	0xbef2dd7d	-0.47434607
187	0xbdff5031	-0.12466467
188	0x3eff51c7	0.4986708
189	0x3e83dc2a	0.2575391
190	0xbee839b4	-0.45356524
191	0x3f03388c	0.5125816
192	0x3eeb59bb	0.45966896
193	0xbdcf9c0e	-0.10137187
194	0xbec4c49f	-0.3843126
195	0xbf0f6937	-0.5601992
196	0x3be03ea0	0.006843403
197	0x3eace3a3	0.33767423
198	0xbe0cd969	-0.1375481
199	0x3f129dda	0.5727211
200	0x3f13dc24	0.5775778
201	0x3e00a248	0.12561905
202	0xbedd4eab	-0.4322408
203	0x3cd12611	0.025530847
204	0x3e159dd5	0.1461099
205	0x3eabb937	0.33539745
206	0x3ebc8368	0.36819005
207	0xbf16cd36	-0.5890688
208	0xbf0da1cd	-0.55325013
209	0xbee51675	-0.44743696
210	0xbe81e7d4	-0.25372183
211	0x3e7a0650	0.2441647
212	0xbe542304	-0.20716482
213	0xbf0d128c	-0.55106425
214	0x3edb5991	0.4284177
215	0xbeb89536	-0.3605134
216	0x3ed7b008	0.4212649
217	0x3ec6511f	0.38733765
218	0xbd96482d	-0.07337985
219	0x3e66a39f	0.22523354
220	0x3f097f2e	0.53709686
221	0xbf015e39	-0.505344
222	0xbeb82b78	-0.35970664
223	0xbf1cf3f9	-0.6130977
224	0x3e95614c	0.29175794
225	0xbe2dfcb2	-0.16990927
226	0x3f258e75	0.646705
227	0x3e33e4be	0.17567727
228	0x3e1c94cf	0.15291141
229	0x3d966d78	0.07345098
230	0x3ed3859d	0.41312876
231	0x3efa691d	0.4890832
232	0xbd3ee2a1	-0.04660285
233	0x3f02b3a5	0.51055366
234	0xbe5efc20	-0.21775866
235	0x3ed99615	0.42497316
236	0x3f01d661	0.5071774
237	0x3e9e36b9	0.30901125
238	0xbee03d65	-0.4379684
239	0xbd8a689c	-0.06758234
240	0xbdcb3157	-0.0992152
241	0x3f1404d6	0.5781988
242	0x3edc98dd	0.43085375
243	0x3edc6fbc	0.43053997
244	0xbe8bf4ee	-0.27335304
245	0x3f42d6f9	0.7610927
246	0x3ef704fe	0.48245996
247	0x3e9dcd45	0.3082067
248	0x3f04a8a0	0.518198
249	0xbeecef0f	-0.46276137
250	0x3eda540d	0.4264225
251	0x3e31cdc5	0.17363651
252	0xbecaf729	-0.39641693
253	0xbdbac744	-0.09120038
254	0x3d7c16a9	0.061545048
255	0xbe38652f	-0.18007348

attention.out_proj.bias f4 [16]
0	0xbc0cf89e	-0.008604197
1	0xbc25ad88	-0.010112174
2	0x3c8a630f	0.016892938
3	0x3be24dc7	0.0069062444
4	0xbbdf1c54	-0.006808797
5	0x3c202a15	0.009775658
6	0xbc4bb4eb	-0.012433271
7	0x3c172290	0.009224549
8	0xbc82e8d0	-0.015980154
9	0xbbb1564b	-0.0054118983
10	0xb8e19600	-0.00010756776
11	0x3bac0986	0.0052501587
12	0x3bb1beba	0.0054243477
13	0xbbb0cf06	-0.005395773
14	0xbc579d98	-0.013160132
15	0x3bdf44cf	0.0068136225
