results/attention_layer/checkpoints/attention_layer_results_method_GD+GradReg_lr_0.5_variant_GradReg_L_1.0_reg_0.01.pth (torch, 8208 bytes, 4 tensors)

attention.in_proj_weight f4 [48, 16]
00000000: 6d7a f83d e791 ab3e d261 aabe 31f1 64be
00000010: 9307 473f 2b33 41bf c288 13bf 7c88 15bf
00000020: 88b5 333f 536c 453e 4b4d 843e 84c8 043e
00000030: 3909 073e 3d38 d3be bbe6 04bf 1937 963e
00000040: ff03 68be 1f45 babe 3a87 0dbe b74a c33e
00000050: 9e14 03bf 8c93 883e e69b 37be 93ba 0b3f
00000060: 04af ca3d c69e b63d 907d 37bd 292e 64bd
00000070: c135 bcbe 6e89 1abf 4180 0dbf bb4d 64bf
00000080: 9a0c cebe fcf7 34be 2ef8 213e 8a0b 9ebe
00000090: b0c0 623d f532 b13c 9e4e 173f 1f3c 59be
000000a0: d3c2 293e 2d40 453f 9718 c3bd d469 a8be
000000b0: a806 c83e 7a46 993d 9928 e7bd db9f f1bd
000000c0: 2e72 0a3f 7cf4 d93b c4b0 8ebe e010 923e
000000d0: 2482 4d3e b470 733f 774a 16bf 48bc 193f
000000e0: 82d8 a03d b00c 9ebe 6b76 1bbf 73c6 8ebe
000000f0: 3c76 b53e df3b 38bf cc50 0cbd a3b0 eabe
00000100: 38f1 6c3d f9cb 393d 4583 f4bc 6e56 373e
00000110: 96da 5cbd c200 01bf 9a53 3abf 58e5 97be
00000120: ca2b 193f caee 1cbf 0a91 41bd 940c 6dbe
00000130: 5d4d 0c3f b1e8 f2be 0213 31be 2259 ab3e
00000140: ea65 65be 8746 133f 43b4 cd3e 1403 f4be
00000150: aaf2 a53e a2eb 05bf 6634 51bf 59f5 bfbe
00000160: b912 80bc 22ca 833e 55b3 163f df62 97bc
00000170: ee6a 273f cf80 76be 4c60 3d3c 88a5 f63d
00000180: fc96 c0be 321a b93b ec9f db3c b6c5 003e
00000190: 2f15 8c3e 56e0 10bf 8c75 8cbe 51ac 33be
000001a0: ff8d 523e 403b 73bf b475 ef3d 523c aebe
000001b0: f733 1d3e 8bc6 35bc 1265 d33e 11e4 37be
000001c0: 6968 b9bd 4761 8d3c 293d 233d a4e4 25bd
000001d0: 2e76 4dbe 4568 d4bd 8993 513e cbe5 a13e
000001e0: f115 893e fc58 34be fbbc 5b3e f5f5 59bd
000001f0: 5779 f53e d0cc cc3c d6c6 ca3e c486 cf3c
00000200: 7856 263f 885e dbbe 4a93 7abe 89d2 b03d
00000210: 21e8 3c3f ea15 0abf ca1c 10bd 416c a2be
00000220: 2136 fdbc 9d7d f43d 5025 813c 41d5 923d
00000230: b1c7 37be d469 94be 5c23 10bf a5d4 0ebf
00000240: 79b7 da3e 095c 0d3f 6624 cbbe 645b 073f
00000250: 531b be3e 9b19 943e 3f9c ebbe 2ce7 0abf
00000260: a89e e83e 4b2d 923e e460 a2be 161b 5bbd
00000270: e492 cb3e 0177 24be ffa1 06bf 4879 4f3e
00000280: b890 b03e c00c 3cbb dbc6 443d 77cd a7be
00000290: 00ad 4fbe 65ad 59bf f15f dd3d 5ffa f23e
000002a0: b8cc 173f 58ec 843d bcf2 cf3e c8ee d03e
000002b0: 32b8 a7be 2c2d fd3d ff76 153f 50fa cfbe
000002c0: 92ef c63d 0c1e 6dbe 3117 8a3e d3d1 c53e
000002d0: c5fa 0b3e adb5 0fbe 1420 1f3e 396a fb3e
000002e0: 0109 dd3e a370 3cbf 2518 02bc a664 10bf
000002f0: 2295 eebe 6fbd 283e ac4f df3e 8906 12be
00000300: 7488 1fbe ac23 30bc f4fa f5bd 5ae4 8b3e
00000310: 5107 aabe ad9e 4b3f 601c ec3e 8e33 f8be
00000320: 9f9f cc3e 77cc c4be 53f8 07bf fba1 4e3e
00000330: 61c5 5fbe cae3 4e3e 3ab5 13bf 6f26 b73e
00000340: dae8 893e 3cd7 cebe 646d 163f d336 28be
00000350: 207e afbe 9e84 2a3b 303a babc b104 22bf
00000360: 0a58 a8be b0d2 303e 01f3 ca3e 0ff8 ae3e
00000370: bb88 783d e479 84bb 1f89 873e 42c7 0b3a
00000380: da72 953e 1039 4ebe a574 1fbf 6a7a 663e
00000390: 2bde 243f ebf5 13bc 93f1 2e3e 228d c7be
000003a0: 6d74 f2bd f7e8 a8be 157d 263b f48a 0abf
000003b0: 1305 0c3f 7800 8b3d 62a2 78be 8a8d e0be
000003c0: 45a8 193e 5ecd 23be f7ca 98be f75b 8e3e
000003d0: e8fa b4be e807 ab3c 7c6f f0be daaa 8a3d
000003e0: 260d 8dbe fed5 ed3e 53bc bd3d 0e5a 8c3e
000003f0: c1a4 36bf 3774 a2be e468 3bbd 30d7 ddbd
0.12132726 0.33509752 -0.33277756 -0.22357632 0.7774593 -0.754687 -0.5763055 -0.58411384
0.7019887 0.19279604 0.2584022 0.12967116 0.13187112 -0.41253844 -0.51914567 0.2933891
-0.22657774 -0.3638086 -0.13821116 0.3814294 -0.51203334 0.2667507 -0.17930564 0.54581565
0.09896663 0.089170024 -0.04479748 -0.055708084 -0.3675976 -0.6036595 -0.55273825 -0.8918111
-0.4024399 -0.17672724 0.1581733 -0.3086818 0.055359542 0.021630744 0.59104335 -0.2121434
0.16578226 0.7705105 -0.095261745 -0.3289324 0.39067578 0.074841455 -0.1128704 -0.11798068
0.54080474 0.0066514593 -0.27869236 0.285285 0.20069176 0.95093846 -0.58707374 0.6005292
0.078537956 -0.30869055 -0.60727566 -0.2788578 0.35441768 -0.71966356 -0.03425674 -0.45837888
0.05784723 0.04536054 -0.02984775 0.17904064 -0.053919397 -0.5039178 -0.72783816 -0.29667163
0.5983244 -0.61301863 -0.04725746 -0.2314933 0.54805547 -0.47443154 -0.17292407 0.3346644
-0.22402158 0.5752949 0.4017659 -0.47658598 0.324117 -0.5231267 -0.8172058 -0.37491873
-0.015633928 0.25740153 0.5886739 -0.018479763 0.65397537 -0.24072574 0.0115586035 0.12043291
-0.37615192 0.0056488747 0.026809655 0.1257542 0.27359912 -0.5659231 -0.2743343 -0.17546202
0.2056198 -0.95012283 0.11692372 -0.34030396 0.15351854 -0.0110947 0.41288048 -0.17958094
-0.09053118 0.0172583 0.03985325 -0.04050125 -0.20064613 -0.1037145 0.20466436 0.3162063
0.26774552 -0.1761207 0.21458809 -0.05321308 0.47944137 0.025000006 0.39604825 0.025332816
0.6497569 -0.4284556 -0.24470249 0.086339064 0.737917 -0.5393969 -0.035183705 -0.31723216
-0.0309096 0.11938021 0.015764862 0.07169581 -0.1794727 -0.2898699 -0.56303954 -0.5579322
0.42718104 0.5521856 -0.39676207 0.52873826 0.37130222 0.28925785 -0.46017644 -0.5425899
0.45433545 0.2855018 -0.31714547 -0.053492628 0.39760506 -0.16061021 -0.52590936 0.20261109
0.34485412 -0.0028694123 0.048041206 -0.32773945 -0.20280838 -0.85030204 0.10809315 0.47456643
0.5929675 0.064903915 0.4061488 0.40807176 -0.32757717 0.123621315 0.583847 -0.4062066
0.09713663 -0.23155993 0.2697082 0.38636646 0.1366988 -0.14034148 0.1553958 0.4910448
0.43170932 -0.7360937 -0.007940327 -0.5640358 -0.46598154 0.16478513 0.43615472 -0.14260305
-0.15579396 -0.010750692 -0.12010756 0.27322656 -0.33208707 0.79538995 0.46115398 -0.48476833
0.3996553 -0.38437244 -0.5311329 0.20178978 -0.21852638 0.20204082 -0.57698405 0.3577151
0.26935464 -0.40398586 0.58760667 -0.16427164 -0.34275913 0.0026018987 -0.022732824 -0.6328841
-0.32879668 0.17267871 0.39638522 0.3417363 0.06067727 -0.004042851 0.26471803 0.0005332121
0.29189187 -0.20138955 -0.6228736 0.22507635 0.644015 -0.009030799 0.17084341 -0.38974863
-0.11838613 -0.32990238 0.0025404145 -0.54118276 0.5469524 0.06787199 -0.24280694 -0.43857986
0.15005596 -0.1599631 -0.2984235 0.2780454 -0.35347676 0.020877793 -0.46960056 0.067708686
-0.27549094 0.46452326 0.092644356 0.27412456 -0.71345145 -0.3172929 -0.04575433 -0.108320594

attention.in_proj_bias f4 [48]
00000000: 0000 0000 0000 0000 0000 0000 0000 0000
00000010: 0000 0000 0000 0000 0000 0000 0000 0000
00000020: 0000 0000 0000 0000 0000 0000 0000 0000
00000030: 0000 0000 0000 0000 0000 0000 0000 0000
00000040: 0000 0000 0000 0000 0000 0000 0000 0000
00000050: 0000 0000 0000 0000 0000 0000 0000 0000
00000060: 0000 0000 0000 0000 0000 0000 0000 0000
00000070: 0000 0000 0000 0000 0000 0000 0000 0000
00000080: 0000 0000 0000 0000 0000 0000 0000 0000
00000090: 0000 0000 0000 0000 0000 0000 0000 0000
000000a0: 0000 0000 0000 0000 0000 0000 0000 0000
000000b0: 0000 0000 0000 0000 0000 0000 0000 0000
0.0 0.0 0.0 0.0 0.0 0.0 0.0 0.0
0.0 0.0 0.0 0.0 0.0 0.0 0.0 0.0
0.0 0.0 0.0 0.0 0.0 0.0 0.0 0.0
0.0 0.0 0.0 0.0 0.0 0.0 0.0 0.0
0.0 0.0 0.0 0.0 0.0 0.0 0.0 0.0
0.0 0.0 0.0 0.0 0.0 0.0 0.0 0.0

attention.out_proj.weight f4 [16, 16]
00000000: c36a 24be aa8b 6fbd 9381 0dbd ccef 963d
00000010: 907c c33c ccad 9ebe 0e45 b1be 086e ca3e
00000020: 72c6 753e 0545 a3bd 7728 383e 69d0 b6be
00000030: 0b7e 4f3e 4471 d9bd 2cb1 553e f450 97bc
00000040: 2e45 8abd 5372 acbe 313c 423e 68fb 2cbe
00000050: a563 ab3e c8a3 623c 0a2a 833e 620d 3c3e
00000060: 42f0 ce3d ee8a 5fbe 2d4b 7d3e 0ff7 903e
00000070: afaf 323e 6804 16be f430 233e 0a66 2cbd
00000080: 7d36 a33e 876f 9d3e a330 7abd abf1 05be
00000090: 706b 283e a268 d6bd 7860 c63e 4525 63be
000000a0: d5d3 923d f864 3dbe d1ac 86be 7a59 43be
000000b0: 54c9 153c 194f 9abe e88e a7be 9789 023e
000000c0: 1dff a53e 6c3d 633e 617f c83e 0456 81bd
000000d0: 8f20 91bd 2eae 5e3e 51a0 273e 0a74 9abe
000000e0: e6a4 a0be cfdd 293e 0641 22be 8e18 a8be
000000f0: 4408 6f3e 797b 543e 1069 073e 0a31 53be
00000100: ad04 a2be 1b25 3c3e 8552 49be e889 87be
00000110: efb6 e93d 3e1d 8c3e 40e3 f63d 9a1d 4a3d
00000120: bf82 35be b45d 7e3e 8913 57be 4c22 a93e
00000130: e522 bfbe 2d49 353d 8025 93be 8726 23be
00000140: d522 683e 2f4e 11bd e75c 9fbe 9594 98be
00000150: 8cdc 0ebe 7d67 a83e dbb6 2bbe 69a0 87be
00000160: 31ad 4c3e 9823 c1bd a320 64bd 039c 43be
00000170: f176 b03e 64a5 073e 19a8 3fbe a7ab c2be
00000180: 7ea9 5a3d 38fb dd3d 8524 423e 4b5f 9bbe
00000190: 8270 763d a90e fd3d 6b04 a9be 5fef 20be
000001a0: 3567 003e 9cc1 4d3d e267 c53e 0cb6 a4be
000001b0: ce5e b7be 446d 433e 6166 edbd 7f62 60be
000001c0: c5cb c33e 1d4a b1be 9b56 48be 7048 803e
000001d0: f944 a93e 1912 4bbe a654 5ebe ea0b bf3d
000001e0: adbc 6cbd ffef 8bbe d96a 79be 8e55 24be
000001f0: d080 97be 4f15 243e 348a 35be 6815 84be
00000200: dd5f 81be 7331 47be 7ac1 a93e 91d8 323e
00000210: f71f acbd f565 a93e dc43 d4bd 6628 e93d
00000220: 0a84 fbbd 6997 df3d 7e13 a3be 241f a4be
00000230: 1228 413e afd4 9abe 2200 a53e 9eea c6be
00000240: de8b 47bd 5c73 be3e 6b9d b2bd 2a46 e93d
00000250: 7bd0 78bd 8e23 84bd dde9 713e eb8d cbbd
00000260: d7b6 af3e 2d0b 45bd d75c 7ebd 7f66 26be
00000270: 451f cb3e 2d03 7d3e 2408 8f3e e416 ab3e
00000280: 4884 13bd bb88 05be c46d a23d 1aea 6ebe
00000290: ce1b 71be c57a 6b3e 0d44 22be d946 15be
000002a0: e2d7 1abe 6250 403e 404a 8b3d f0c9 8e3e
000002b0: 76e5 a33e e798 16be 238e 98bd ecf2 963e
000002c0: b5eb 083e b2c4 9e3e 1305 523e 2b36 60be
000002d0: 4335 8d3e 56df fb3a d991 b7bd 6039 b83e
000002e0: 7184 a8be d594 8a3e cf8e a8be c855 6fbd
000002f0: 7260 933e e268 393e 4af2 77be 05ad af3e
00000300: 42c6 653e dc84 93bd 2223 59be 7301 93be
00000310: d5c0 163d 68b2 6f3e acce 01be 79ca 913e
00000320: 918b 8b3e 9c05 2d3d 2257 60be f3f1 39bd
00000330: f462 123e b1f3 703e 112b 113e fbdd bfbe
00000340: 7d4f a0be 0f94 9cbe 7dfc 51be 03f7 123e
00000350: 3b66 0fbe b3fc 9abe e554 7e3e e3f3 52be
00000360: 47f1 6f3e a3a7 253e 3ed2 5ebd 7e04 2c3e
00000370: 0cd3 ab3e 323c adbe 2950 21be 4712 a5be
00000380: 5d36 0b3e 3944 94bd d477 b03e 20ec 0c3d
00000390: 7fa2 eb3d 120a 8d3d f7f9 6f3e 0149 943e
000003a0: b1e9 eebd e1ff 8e3e c089 33be 0bd7 7b3e
000003b0: cd47 a83e 043d 1b3e ebbf 33be de69 f43b
000003c0: 5fc6 c9bd b17a a63e 7601 723e 1c4d 4a3e
000003d0: b994 0dbe 49fd cb3e e3b1 9e3e c57a df3d
000003e0: 26b5 943e 8811 80be 8b10 813e 44a8 bc3d
000003f0: da87 83be da0e 5dbd 441c f43d 49d4 a5bd
-0.16056351 -0.058482803 -0.0345474 0.073699564 0.023863107 -0.30991971 -0.34622997 0.39537072
0.24001482 -0.07972149 0.17984186 -0.3570588 0.20262925 -0.10617307 0.20868367 -0.018471219
-0.06751476 -0.33680972 0.18968274 -0.16892779 0.3347446 0.013832994 0.2561801 0.1836448
0.10104419 -0.21830341 0.24735709 0.2831349 0.1744983 -0.14650118 0.15936643 -0.0420895
0.3187751 0.3074915 -0.06108154 -0.1308047 0.16447234 -0.10469176 0.38745475 -0.22182186
0.0716931 -0.18495548 -0.26303723 -0.19077101 0.009142239 -0.30138472 -0.32726216 0.12747799
0.32421198 0.221914 0.39159682 -0.06315234 -0.07086288 0.21746132 0.1636975 -0.30166656
-0.31375808 0.1658852 -0.15845117 -0.32831234 0.23342997 0.20750226 0.13223672 -0.20624176
-0.31644192 0.1837353 -0.19660385 -0.26472402 0.11411845 0.2736606 0.12055063 0.049344636
-0.17725657 0.24840432 -0.21003546 0.3303398 -0.3733131 0.04425924 -0.28739548 -0.15932666
0.22669537 -0.035474952 -0.31125566 -0.2980086 -0.1395132 0.32891455 -0.16768973 -0.2648957
0.19987942 -0.09430617 -0.055695187 -0.19102482 0.34465745 0.13246685 -0.18716468 -0.38021585
0.053384297 0.10838932 0.18959244 -0.3034614 0.06016589 0.12356312 -0.33011183 -0.15716313
0.1253937 0.05023347 0.3855582 -0.3217014 -0.35814518 0.1908465 -0.11591793 -0.21912573
0.382414 -0.34626856 -0.19564287 0.25055265 0.33060434 -0.19831122 -0.21711978 0.09328444
-0.057797123 -0.2733154 -0.24357165 -0.16048262 -0.29590464 0.16023754 -0.17728502 -0.25797582
-0.2526845 -0.19452457 0.33155423 0.17465426 -0.08404534 0.330856 -0.10364506 0.113846585
-0.12281044 0.10917551 -0.3185081 -0.32055008 0.18862942 -0.3024039 0.32226664 -0.38850874
-0.048717372 0.37197387 -0.08721431 0.11390336 -0.060745697 -0.06452094 0.23624368 -0.09939178
0.34319183 -0.04810636 -0.062100258 -0.16250037 0.39672294 0.24708243 0.27935898 0.33415902
-0.036014825 -0.1304044 0.079310924 -0.2333149 -0.23545763 0.22996052 -0.15846272 -0.14577807
-0.15121415 0.18780664 0.068012714 0.2788844 0.32011002 -0.14706765 -0.074489854 0.2948221
0.13371165 0.31009442 0.20509748 -0.21895663 0.27579698 0.001921634 -0.08963365 0.35981274
-0.32913545 0.27066675 -0.32921454 -0.058431417 0.2878452 0.18106416 -0.2421352 0.3431169
0.2243891 -0.07203075 -0.21204808 -0.28712043 0.036804993 0.234079 -0.12676495 0.28474787
0.27254918 0.042241678 -0.21908239 -0.045396756 0.1429556 0.23530461 0.14176585 -0.37474045
-0.31310645 -0.3058171 -0.20506473 0.1435204 -0.14003842 -0.3027092 0.24837072 -0.20600848
0.23431884 0.1617723 -0.05439972 0.16798589 0.33559453 -0.33834988 -0.15753235 -0.32240507
0.13594957 -0.07239575 0.34466422 0.034404874 0.11505603 0.068866864 0.23435198 0.28961948
-0.11665667 0.27929595 -0.17533016 0.24593751 0.3286728 0.15159994 -0.1755368 0.0074589094
-0.098522894 0.3251548 0.2363337 0.19755977 -0.13826264 0.3984168 0.30995092 0.10912088
0.29044455 -0.25013375 0.25207934 0.092117816 -0.25689584 -0.05396924 0.11919454 -0.08097131

attention.out_proj.bias f4 [16]
00000000: 7424 75bb fccf a33a df62 d73b affd e33b
00000010: 6686 9ebc 2cba c43b 4b71 b13a f8a2 e4b9
00000020: fa63 59bc 0a9f 84bc 887a 1cbb 0469 7fbb
00000030: 9f56 d9bb 5f5c b8bb f4dd dbba 300a 6cbb
-0.003740576 0.0012497897 0.0065730656 0.0069577317 -0.019351196 0.0060036387 0.0013537792 -0.0004360897
-0.013268465 -0.016189117 -0.0023876745 -0.0038972506 -0.0066326405 -0.005626246 -0.0016774521 -0.0036016814
