results/attention_layer/checkpoints/attention_layer_results_method_Adam+Newton_lr_0.001_variant_None_L_1.0_reg_0.01.pth (torch, 8208 bytes, 4 tensors)

attention.in_proj_weight f4 [48, 16]
000000 49 1d 27 41 10 9d fa 3f 77 b8 0c 42 01 51 f9 c1
       10.44465 1.9579182 35.18014 -31.164553
000010 b2 b0 fd 41 2c 8c 3c c1 b4 49 79 42 37 07 b6 42
       31.711277 -11.784222 62.321976 91.01409
000020 8f 65 13 c0 18 7b b9 41 70 b9 8f 42 21 9a 30 c2
       -2.3030736 23.185104 71.86218 -44.150517
000030 a6 c5 ba c1 e4 b5 43 c2 d1 df b1 42 9d 3e 29 42
       -23.346508 -48.927628 88.93714 42.311146
000040 2d eb ff 3f b7 90 40 c3 6e 06 17 41 2b 6c 06 c4
       1.9993645 -192.56529 9.43907 -537.6901
000050 a8 39 1c 43 b1 83 f5 42 61 3b 7e 43 95 6c 95 42
       156.22522 122.75721 254.23195 74.712074
000060 3d e6 41 c3 02 52 95 c3 25 73 eb 42 62 32 1c c4
       -193.89937 -298.6407 117.72489 -624.78723
000070 6d 4f 1e 43 d3 a5 75 c2 af be cc 43 e6 be 99 41
       158.31026 -61.411938 409.48972 19.218212
000080 0b 0d 0b 42 f4 2a ad c2 0c 17 8c 41 1b cc 55 c3
       34.762737 -86.58389 17.511253 -213.79729
000090 8d d7 5e 42 6c 75 2a 42 63 90 dc 42 c7 4f e1 c1
       55.7105 42.61467 110.282005 -28.163954
0000a0 ca 6b f3 c2 30 c2 e4 c2 5f ae 6e c2 38 d0 88 c3
       -121.710526 -114.37927 -59.670284 -273.6267
0000b0 cb 7b c7 41 b9 25 28 c2 13 9a 97 42 19 8b ab 41
       24.935446 -42.03684 75.80093 21.442919
0000c0 1f 85 1a c2 95 29 48 42 f2 9d e7 41 3d 54 87 41
       -38.63 50.040607 28.952122 16.916132
0000d0 06 4c 3a 42 76 6e 33 42 91 ca ce bf 00 b8 74 42
       46.57424 44.857872 -1.6155568 61.179688
0000e0 61 b3 b6 42 7e 09 18 42 a9 26 22 42 df f3 91 42
       91.35035 38.00927 40.537754 72.97631
0000f0 1b 3b d8 41 ae ab 03 41 e3 2c a8 40 fe 17 38 bf
       27.02886 8.229414 5.2554793 -0.7191161
000100 56 5f 10 c2 e7 b4 9e 42 4d 9b d0 c1 54 a3 c6 42
       -36.0931 79.353325 -26.07583 99.319
000110 86 b8 ce c1 16 72 7d c2 15 c0 22 c2 0a b9 71 41
       -25.8401 -63.361412 -40.68758 15.107676
000120 dd 23 c6 c1 0c b9 33 42 50 2c de bf 65 ba 55 43
       -24.767511 44.93071 -1.7357273 213.7281
000130 61 57 26 c1 bd be 4a 42 37 af 37 c2 5d bb 32 c2
       -10.396333 50.686268 -45.92111 -44.682972
000140 51 93 25 42 f6 f0 89 41 62 f6 71 41 49 e0 9c c2
       41.393864 17.242657 15.122652 -78.43806
000150 c2 58 83 c1 1b 3f 0e 40 41 6a 96 42 df 8c 44 c1
       -16.418339 2.2226017 75.20753 -12.284392
000160 3f 67 b8 c1 f9 33 e2 c1 93 19 66 c1 94 94 36 c2
       -23.050413 -28.275377 -14.381244 -45.645096
000170 0e 53 a5 41 60 69 8a c1 40 f5 9f 42 c7 cd de c1
       20.665554 -17.301453 79.979004 -27.850477
000180 c3 18 af c1 ae 2b d3 c2 ea fb 60 42 82 a4 06 c3
       -21.88709 -105.58531 56.24601 -134.64261
000190 4f 61 cd c1 67 9f 84 42 e7 76 3d 43 65 fc f6 42
       -25.672514 66.31133 189.46446 123.49296
0001a0 f1 a3 ce c1 cc 95 7c c2 f0 da 4e 42 3a a7 3d c3
       -25.83005 -63.146286 51.713806 -189.65323
0001b0 9d 04 20 42 29 fe e5 c2 ca 90 36 43 ba d6 38 42
       40.004505 -114.99641 182.56558 46.209694
0001c0 cf 9d 05 41 11 c1 8e c0 72 95 0f 41 a8 d9 96 41
       8.3510275 -4.4610677 8.973986 18.856277
0001d0 68 2b 64 40 62 a6 0c c2 9d 95 89 3e ea 63 b3 41
       3.5651493 -35.162483 0.26871958 22.423786
0001e0 49 ae 05 42 77 c6 f9 41 15 24 29 42 30 1f 30 c1
       33.4202 31.221907 42.285236 -11.007614
0001f0 39 cf 0c c2 32 81 ac c0 20 93 e5 41 58 e4 6a 41
       -35.202366 -5.390771 28.696838 14.680748
000200 4d dd af 42 1c e1 24 43 3f 94 f6 c1 90 8f 05 43
       87.93223 164.87933 -30.822386 133.56079
000210 9b d2 6d 42 85 74 5e c2 a2 2e 38 c3 82 55 d1 c2
       59.45567 -55.61379 -184.18216 -104.66701
000220 da 72 df 42 a7 d8 f2 42 ad 52 82 42 a8 8e 81 43
       111.72432 121.42315 65.161476 259.1145
000230 1c c4 0b c2 ba 39 de 42 54 9a ba c2 de 51 0f c2
       -34.941513 111.11275 -93.30142 -35.82995
000240 e0 8a 99 c2 00 6c 63 c2 32 9a 28 42 27 40 12 c3
       -76.77124 -56.85547 42.15058 -146.2506
000250 34 85 c7 41 53 00 8f 3e d0 cb 28 43 bc 24 1c 43
       24.94004 0.27929935 168.79614 156.1435
000260 aa 02 0a c3 46 e8 c2 c2 21 bd 0d c0 f8 38 36 c3
       -138.0104 -97.45366 -2.2146685 -182.22253
000270 a1 93 ae 41 da c8 93 c2 57 81 02 43 5c 88 ac 41
       21.822084 -73.89229 130.50523 21.566582
000280 cb e8 9b 42 11 43 1d 42 f2 cd 0f 42 0a c9 ae c2
       77.95467 39.315495 35.95112 -87.392654
000290 ee ec 8f 41 fc ce 78 41 21 07 63 42 ce b0 3e c0
       17.990688 15.550533 56.75696 -2.9795413
0002a0 3f 93 2a 42 5a 6f 16 40 14 e2 02 42 70 f5 9c c2
       42.643795 2.3505464 32.72078 -78.47937
0002b0 62 c1 41 41 21 fe ba c1 37 cd bf 42 ad a6 87 c1
       12.109713 -23.374086 95.90081 -16.956385
0002c0 5b 2b 52 c1 0c 31 c2 c2 fc db 71 41 9a 14 21 c3
       -13.135585 -97.095795 15.116207 -161.08047
0002d0 3f 0c 22 42 b1 62 9b 42 20 a6 e7 42 22 6a c1 42
       40.51196 77.69276 115.82446 96.70729
0002e0 d2 28 3c c1 48 2f 7d c2 02 a1 00 43 cc 34 50 c3
       -11.759966 -63.296173 128.62894 -208.20624
0002f0 98 6d 89 42 7d d9 7a c2 bf 1d 4b 43 c3 86 0b 42
       68.71405 -62.71239 203.1162 34.881603
000300 93 f2 d8 bf 0e c7 19 c2 ae f7 8b 40 af 60 4f c2
       -1.6949028 -38.44439 4.3739843 -51.844418
000310 29 a9 24 c2 e5 8f 8b 41 0a 63 19 42 24 79 5c c2
       -41.165195 17.445261 38.346718 -55.1183
000320 da c5 ad c1 6c c4 86 c2 4e 33 c5 c2 c0 fd b2 c2
       -21.721607 -67.38364 -98.600204 -89.495605
000330 96 28 81 41 bb 0f 03 c1 89 6d 93 c1 ed b8 b3 c1
       16.144817 -8.19134 -18.428484 -22.465296
000340 1c 5d 89 41 5a 92 28 c2 0a c6 b3 c0 9b 62 ee c2
       17.170464 -42.14292 -5.6179247 -119.19259
000350 5a 81 f0 c2 21 b4 0d 3e 6b 68 22 43 08 fb 8c 42
       -120.25264 0.13838245 162.40788 70.490295
000360 3a 39 95 c2 b1 a5 a1 c2 93 0c 65 42 44 ba 08 c3
       -74.61177 -80.823616 57.26228 -136.7276
000370 fc 42 a2 42 af 10 8a c2 7c af 68 43 44 da 88 c2
       81.13083 -69.032585 232.68549 -68.4263
000380 71 b9 ed 41 0d 40 95 42 32 dd 03 41 be 80 88 42
       29.715548 74.6251 8.241503 68.25145
000390 72 84 c4 42 4a cb c2 c1 f2 13 fd c2 48 0a 63 c2
       98.25868 -24.349262 -126.538956 -56.76004
0003a0 7c 64 9c 42 61 95 a2 42 e4 85 2f 41 59 2d f1 42
       78.19626 81.291756 10.970188 120.58857
0003b0 01 c7 80 c2 3e 1e 87 42 b9 87 ef c2 c6 13 f2 41
       -64.38868 67.55907 -119.76508 30.259655
0003c0 5d b4 d9 41 7a 02 20 c2 b9 9c 2d 40 15 1b b1 c2
       27.213068 -40.00242 2.7126906 -88.552895
0003d0 e1 e9 59 c1 f5 f7 a6 41 c7 ba 86 42 05 38 1e 42
       -13.619599 20.871073 67.3648 39.554707
0003e0 63 8f 57 c1 6c b4 39 c2 ad 71 98 42 eb a8 f8 c2
       -13.4725065 -46.426193 76.22202 -124.32992
0003f0 0c 11 19 42 0c 8b 26 c2 c2 45 0c 43 e3 dc 8d 3f
       38.266647 -41.635788 140.27249 1.1083034

attention.in_proj_bias f4 [48]
000000 00 00 00 00 00 00 00 00 00 00 00 00 00 00 00 00
       0.0 0.0 0.0 0.0
000010 00 00 00 00 00 00 00 00 00 00 00 00 00 00 00 00
       0.0 0.0 0.0 0.0
000020 00 00 00 00 00 00 00 00 00 00 00 00 00 00 00 00
       0.0 0.0 0.0 0.0
000030 00 00 00 00 00 00 00 00 00 00 00 00 00 00 00 00
       0.0 0.0 0.0 0.0
000040 00 00 00 00 00 00 00 00 00 00 00 00 00 00 00 00
       0.0 0.0 0.0 0.0
000050 00 00 00 00 00 00 00 00 00 00 00 00 00 00 00 00
       0.0 0.0 0.0 0.0
000060 00 00 00 00 00 00 00 00 00 00 00 00 00 00 00 00
       0.0 0.0 0.0 0.0
000070 00 00 00 00 00 00 00 00 00 00 00 00 00 00 00 00
       0.0 0.0 0.0 0.0
000080 00 00 00 00 00 00 00 00 00 00 00 00 00 00 00 00
       0.0 0.0 0.0 0.0
000090 00 00 00 00 00 00 00 00 00 00 00 00 00 00 00 00
       0.0 0.0 0.0 0.0
0000a0 00 00 00 00 00 00 00 00 00 00 00 00 00 00 00 00
       0.0 0.0 0.0 0.0
0000b0 00 00 00 00 00 00 00 00 00 00 00 00 00 00 00 00
       0.0 0.0 0.0 0.0

attention.out_proj.weight f4 [16, 16]
000000 1a 03 88 bd b9 e8 8b bd 45 6c 0a bc bf 47 3e 3d
       -0.066412166 -0.06831498 -0.008448665 0.04645514
000010 17 02 73 3c 9d 32 38 be 3c 5a 42 be 8b d9 5c 3e
       0.014832041 -0.17988057 -0.18979734 0.21567361
000020 22 7c 10 3e 64 21 3f bd cf 8d d7 3d ce e6 47 be
       0.14109853 -0.046662703 0.10525095 -0.19521639
000030 96 86 cb 3d cd ef 27 bd e7 65 0d 3e 08 02 55 bb
       0.099377796 -0.041000176 0.13808404 -0.0032502431
000040 47 b8 90 bd 46 f6 3c be e3 f2 c3 3d 67 d9 8a bd
       -0.07066398 -0.18453321 0.09567811 -0.067797475
000050 bf 2f 37 3e 02 29 2d 3c ff 41 10 3e 80 a0 dc 3d
       0.17889307 0.010568859 0.14087676 0.107728004
000060 9a 32 00 3d 80 22 fb bd e6 6a 0e 3e 50 9a 23 3e
       0.031298257 -0.1226244 0.13907966 0.15976834
000070 e1 2b 03 3e 7a f7 c9 bd 71 04 ba 3d 97 bc 2f bb
       0.12809707 -0.098616555 0.090828784 -0.002681529
000080 b4 60 46 3e cb c2 32 3e d5 71 86 bd f9 ac 5d bd
       0.19372827 0.1745712 -0.065646805 -0.054120038
000090 1e b5 9f 3d 3b 45 0e bd 59 8e 70 3e 38 4d 00 be
       0.07798217 -0.034733992 0.23491801 -0.12529457
0000a0 f3 25 5a 3c e6 cf d5 bd 94 dc 10 be 3c c4 da bd
       0.013314712 -0.10440044 -0.14146644 -0.1068196
0000b0 40 40 f4 3c ce 63 16 be 6d 48 4e be 65 57 82 3d
       0.029815793 -0.1468651 -0.20144816 0.063643254
0000c0 d1 23 5f 3e 80 e6 40 3e 4b ac 63 3e 28 74 ab bd
       0.21791007 0.18837929 0.22233693 -0.083717644
0000d0 78 ae 28 bd 38 8e 02 3e 84 a7 c6 3d 04 ce 2c be
       -0.04118201 0.12749565 0.0969992 -0.16875464
0000e0 bb d5 55 be d9 94 e7 3d 2d cc b8 bd 63 d3 33 be
       -0.20882313 0.11307687 -0.090233184 -0.17561106
0000f0 c5 ea 14 3e 5e 1c e4 3d 85 1a be 3d a1 fe 07 be
       0.14542682 0.11138223 0.09282402 -0.13280727
000100 a1 cf 3a be ea a0 ee 3d 66 19 ca bd c6 9b 12 be
       -0.18243267 0.11651786 -0.098681256 -0.14317235
000110 42 c2 c3 3d 3c 4a 37 3e 05 b9 56 3d 7f 26 f8 ba
       0.09558536 0.17899412 0.052422542 -0.0018932371
000120 5f 92 05 be 02 18 11 3e 99 7c 08 be da 5d 4b 3e
       -0.13044117 0.14169315 -0.1332878 0.1986002
000130 79 ce 4e be a2 ce 1f 3c ce 48 40 be e2 73 db bd
       -0.2019595 0.009753855 -0.18777773 -0.10715462
000140 fa 6a 29 3e 87 4c 3a bd db 9d 4b be ba 7c 49 be
       0.16544715 -0.04548314 -0.19884436 -0.19676486
000150 33 b3 c3 bd 79 95 60 3e 34 79 a6 bd 8f 8d 1e be
       -0.09555664 0.2193202 -0.081285864 -0.15483688
000160 91 43 e1 3d ae 3c 45 bd 84 f6 2b bd 58 a2 12 be
       0.109992154 -0.04815357 -0.041983142 -0.14319742
000170 05 f7 53 3e 86 b2 87 3d 1c de fa bd 18 7b 67 be
       0.20699699 0.066258475 -0.12249395 -0.2260555
000180 15 60 f1 3c 4d c9 77 3d 9f 89 c0 3d 08 8a 35 be
       0.02946476 0.06049471 0.09401249 -0.17728436
000190 68 b6 af 3c ba 3d a7 3d 2b 9e 4a be b3 2c ad bd
       0.021449283 0.0816607 -0.19786899 -0.08455791
0001a0 8d 7a b9 3d 6d 12 c0 3c 26 71 4f 3e d4 5f 4e be
       0.09056578 0.023446286 0.20258006 -0.20153743
0001b0 92 7b 6a be 3c 72 03 3e fc a4 35 bd 72 e0 ff bd
       -0.22898701 0.12836546 -0.044346794 -0.124939814
0001c0 75 31 64 3e 24 07 83 be 09 39 f0 bd e3 5a 04 3e
       0.22284491 -0.25591385 -0.117296286 0.12925296
0001d0 4d 4c 50 3e 8d 5f f8 bd 08 91 1a be 80 4f 48 3d
       0.20341606 -0.121276 -0.15094388 0.048903942
0001e0 f1 fb d4 bb cf 53 16 be f0 98 2c be a7 57 e9 bd
       -0.0064997603 -0.14680408 -0.16855216 -0.113936715
0001f0 c7 b7 3f be 4f 7c ce 3d 9d 3b be bd 87 00 05 be
       -0.18722449 0.10082304 -0.09288714 -0.12988482
000200 3d d3 1e be 29 13 fa bd 8f a4 53 3e 7a 98 f7 3d
       -0.15510269 -0.12210686 0.20668243 0.120896295
000210 7e 5c 28 bd 3c 64 61 3e 7d 4c 9f bd 4e 0f 6a 3d
       -0.041103832 0.22010893 -0.07778261 0.057143502
000220 b0 f6 5e bd 36 cf 91 3d 8c 87 45 be c6 16 3f be
       -0.05443448 0.071196005 -0.19289988 -0.18661031
000230 a0 8a c5 3d be e9 22 be 3d 5d 49 3e 1c 67 74 be
       0.09645581 -0.15909478 0.19664474 -0.23867458
000240 3d a3 7d bc ec e2 5e 3e 01 2a 23 bd c6 6d c2 3d
       -0.015480814 0.21766251 -0.03983498 0.09493594
000250 ee 5b d7 bb 88 e5 e5 bc a8 28 02 3e 91 d7 9d bd
       -0.006572238 -0.02806355 0.12710822 -0.07707132
000260 2f 05 4a 3e e3 1b f5 bc 9f 2a fc bc 11 6c a0 bd
       0.1972854 -0.029920524 -0.030782042 -0.07833112
000270 a7 b7 5e 3e 38 db 06 3e ea 1e 10 3e c4 53 4a 3e
       0.21749745 0.13169563 0.14074293 0.19758517
000280 f7 24 1c bd b8 95 ed bc f6 5e 7a 3d 2e 8c fb bd
       -0.03812119 -0.029002056 0.061125718 -0.122825965
000290 45 57 00 be 21 dc e2 3d 12 5d 88 bd 98 cf a0 bd
       -0.1253329 0.110771425 -0.06658377 -0.07852095
0002a0 ae 92 de bd b8 b8 b4 3d e1 db e4 3c e8 19 44 3e
       -0.10867821 0.08824295 0.027936878 0.19150507
0002b0 10 8a 38 3e 75 d4 93 bd 0e cc ed bc 4a 82 1a 3e
       0.18021417 -0.07218257 -0.029027965 0.15088764
0002c0 24 82 d7 3d 96 8c 58 3e d2 dd 00 3e 9e 00 0e be
       0.10522869 0.2114738 0.12584618 -0.13867423
0002d0 e1 20 1c 3e 37 63 51 bc b5 94 1a bd 0d 40 5e 3e
       0.15246917 -0.012780002 -0.037739474 0.21704121
0002e0 31 95 58 be 96 9b 35 3e d4 7b 35 be 82 59 03 bd
       -0.21150662 0.17735133 -0.17723018 -0.032067783
0002f0 b7 37 3c 3e 59 d9 db 3d 5b 89 00 be cd bb 41 3e
       0.18380629 0.10734815 -0.12552397 0.18919297
000300 b3 4a 21 3e 51 95 2d bc 8c 57 f8 bd b3 b3 38 be
       0.15751152 -0.010594682 -0.12126073 -0.180373
000310 32 8b 3c bc 7e a5 c2 3d dc 68 c8 bd 5c 80 19 3e
       -0.011507796 0.095042214 -0.09785625 0.14990371
000320 74 e3 0d 3e 36 ad 72 bb 6c 81 25 be 4c fe d2 bc
       0.13856298 -0.0037029511 -0.16162652 -0.025756024
000330 1d cf a1 3d 7f 2e 0c 3e e1 f5 76 3d e2 22 73 be
       0.07900832 0.13689612 0.060293082 -0.23743775
000340 d7 ff 3f be 4e a3 4d be 9f 1f 0f be 2e a9 cc 3d
       -0.18749939 -0.20081827 -0.13976906 0.09993206
000350 07 08 ab bd 80 8a 1f be ab 3f 0f 3e e1 cf d2 bd
       -0.083511405 -0.15580177 0.13989131 -0.10293556
000360 60 73 f8 3d 62 e3 98 3d 8a 8d 0c bc 4e 6f af 3d
       0.12131381 0.07465245 -0.008578667 0.085661516
000370 5c 25 4c 3e 7e 45 5d be 38 5f 9e bd 26 da 38 be
       0.19936126 -0.2160854 -0.07733005 -0.18051967
000380 66 7c a1 3d 05 e8 89 bd d4 bb 3a 3e 05 15 12 bc
       0.07885055 -0.06733707 0.18235713 -0.008916144
000390 b5 66 7c 3d d6 ee 3c 3d 68 3a 0d 3e 36 dc 2a 3e
       0.061621387 0.04612621 0.13791811 0.16685566
0003a0 ce 02 af bd 6f 85 26 3e 33 83 e0 bd 1e 8f f6 3d
       -0.08545457 0.16261838 -0.10962524 0.12039016
0003b0 7b 67 50 3e 60 79 8b 3d 12 ef 0f be e2 de ee 3c
       0.20351975 0.0681026 -0.14056042 0.029159013
0003c0 27 39 b6 bd 2e b4 39 3e 0f 07 13 3e 7d 00 d9 3d
       -0.0889762 0.1813514 0.14358161 0.10595796
0003d0 fd fb a4 bd e3 06 66 3e 5e 65 2e 3e c2 06 07 3d
       -0.080558755 0.22463565 0.17030856 0.03296543
0003e0 34 9f 1d 3e 4c 7a ef bd e6 c2 34 3e d1 cf dd 3c
       0.15392762 -0.11693248 0.17652473 0.027076634
0003f0 e1 ab 14 be 8e cc f2 bc 54 de c3 3d 76 69 a1 bc
       -0.14518692 -0.029638555 0.0956389 -0.019703608

attention.out_proj.bias f4 [16]
000000 21 c6 bb 3b 9c 38 22 bb 47 16 df 3b db 92 7e 3a
       0.005730406 -0.002475298 0.0068080756 0.0009711214
000010 e2 60 f3 bb b1 99 11 bb 21 83 ff 3a 78 4b 35 bb
       -0.007427321 -0.0022216851 0.0019494036 -0.002766339
000020 ef 51 c5 bb ea 04 e8 ba 48 69 46 3b 5c 9b e1 bb
       -0.00602173 -0.001770166 0.0030275155 -0.0068849754
000030 fb 26 3a 39 24 0a 0e bb 53 39 c6 bb 15 72 74 3a
       0.00017752864 -0.0021673525 -0.006049314 0.0009324861
