results/attention_layer/checkpoints/attention_layer_results_method_GD_lr_0.5.pth (torch, 7448 bytes, 4 tensors)

attention.in_proj_weight f4 [48, 16]
00000000: 7210 0a3e 00cc fd3b 00bf 6bbe 60cf c1bd
00000010: eabd 723e 584f 5ebe d8c7 87be de43 8cbe
00000020: 76ed 2b3e f910 823e 18d1 00bd 2e78 673e
00000030: 00fe 133d 0c48 fdbd 809c b9bb c6e3 b2bd
00000040: 00e5 133d cc3f 0bbe 4aec 3fbe 60ba eebc
00000050: 3f59 17be 42fc 3f3e dc9a 6dbe ad1c 8a3e
00000060: 744b 123e dd38 883e d080 853c 565f 41be
00000070: 0b33 3abe 7cae 4cbe 74e4 0ebe 4bc7 8fbe
00000080: 068c f4bd e041 39bd 5e5a 093e c4cc 9bbe
00000090: 006e dc3b c0b8 9d3c 3350 8d3e 1836 703d
000000a0: a211 183e 5f58 9c3e 6073 ba3d d06b 57bd
000000b0: 88d8 673d a054 39bc 2789 11be 88a8 33be
000000c0: 78a0 423e 9075 473d e36f 7ebe 10a1 b3bc
000000d0: c0f6 1e3c 270c 8c3e 5d67 99be 8489 443e
000000e0: a00b c03c ba92 6cbe b145 67be 08b0 9dbd
000000f0: 8049 183e 16e5 76be 8002 093d a4d2 8ebe
00000100: 80dc c0bb d079 723d a094 e6bd e0ae fdbc
00000110: ee9b 7dbe fae5 66be 0be9 1fbe 7465 49be
00000120: fa7a 773e 0a38 74be e8c1 3ebd f4fc 06be
00000130: 5e47 043e fb46 8bbe 381d f73d c24d 433e
00000140: bad8 b1bd 9a49 733e acd8 d93d 2b0b 47be
00000150: 4067 a33b a9e5 11be e6aa 5bbe 9a9b 94be
00000160: d8f1 163e d0ad c9bc f2f8 063e 0839 0abd
00000170: 9993 9a3e d60a 07be 54eb 943d 1e27 c2bd
00000180: a876 2bbe 48a0 973d b2e5 5e3e 9093 2f3e
00000190: dc6a 3e3e 287d 7ebe 0025 e63b 9aba 3dbe
000001a0: 7e02 98bd ccda 92be c00a b03d 4891 52be
000001b0: 0c31 d9bd eeaf aabd 629c 473e f558 14be
000001c0: 7422 1b3e 44f2 66bd 1448 013e 1c09 2cbe
000001d0: 4050 353c 4457 303e 68ad 443d 2cfc 953d
000001e0: 08d5 083e 7454 f33d 3f4e 843e 4083 3fbc
000001f0: c21b 753e c008 8ebc 68e0 293e 34d4 3d3e
00000200: d3b1 993e 4070 febb 869b 86be 52b5 0b3e
00000210: 8939 973e c768 22be 34c7 80bd c8bb b2bd
00000220: 806c f53b c434 1a3e ab52 70be 00f3 0ebd
00000230: eea8 80bd c435 efbd 6289 9ebd f7ae 8cbe
00000240: 906b cd3c 1c74 083e 5c8e 7cbe f92c 843e
00000250: 0014 103d 6cec ab3d 04be 0bbe 1bf3 91be
00000260: caae 033e 7847 1d3e 20b6 5cbe b867 30bd
00000270: 18bf 723d 0cdb ba3d 38ce 18be 24cd b23d
00000280: f239 4c3e 98b3 2d3d 263e fdbd 14ef 1cbe
00000290: d02f 71be 6c40 76be a034 133d 8e2a 483e
000002a0: ae23 783e c002 c9bc e035 173e 8eda 1c3e
000002b0: 60fd cabc 1a8c 553e a291 2b3e 2f6a 7ebe
000002c0: c053 5cbc 08f9 093e 6e6d 5c3e 59bf 913e
000002d0: 2eb3 5b3e 80d9 31bd a064 c9bc 5709 8a3e
000002e0: eab9 3e3e 22b2 5cbe d686 743e 483f 68be
000002f0: 40fb fabd 9299 653e 7305 803e b4ec e53d
00000300: 1cae 6dbe a1a2 813e 3051 de3d c062 b1bd
00000310: 8fec 5dbe fd0f 873e 44c3 373e 215e 84be
00000320: 8643 633e 4e1b 51be bee1 3abe 181f cc3d
00000330: 68b5 5fbd 8c80 943d cbc9 8bbe ee95 1e3e
00000340: 823a 793e 804e babc 1ec6 533e 989a 3a3d
00000350: b898 16bd c0ee 2b3c 209d 11bd 3f04 39be
00000360: 003a e7bc acf7 23be 4a7f 033e 4ac6 613e
00000370: 5a57 593e 2893 eabd da68 533e 7ef5 273e
00000380: 2a49 563e e811 1cbd f58b 99be 004e 023a
00000390: 9e1f 563e 706e 7fbd c04a 3abd ecb6 96be
000003a0: bc5c 7dbd 40ba 053c 0e4f 053e aae6 4cbe
000003b0: eeac 703e d4a3 a43d 52ae fcbd feca ebbd
000003c0: 38b6 693d 3e98 fbbd c3f6 99be 2c48 ff3d
000003d0: 3f41 8ebe e234 97bd 0e78 98be 3495 bcbd
000003e0: e936 6dbe 15e4 8f3e 78c6 343d 8009 25bb
000003f0: c5d3 87be 0c41 8dbe 003b 893d ec2c dc3d
0.13482836 0.007745266 -0.2302208 -0.09463382 0.23705259 -0.21709955 -0.26519656 -0.2739553
0.16789803 0.25403574 -0.031449407 0.22604439 0.036130905 -0.123672575 -0.005664408 -0.087348506
0.036107063 -0.13598555 -0.18742481 -0.029141605 -0.14780138 0.18748572 -0.23203605 0.26975003
0.14286596 0.26605883 0.016296774 -0.18884024 -0.18183534 -0.19988436 -0.13954335 -0.28081736
-0.1194077 -0.04522884 0.13413379 -0.3042966 0.00672698 0.019253135 0.2760025 0.058645338
0.14850476 0.30536172 0.09104037 -0.052593052 0.056602985 -0.01131168 -0.14212476 -0.17544758
0.19006526 0.0486961 -0.24847369 -0.021927387 0.0097023845 0.27353022 -0.29961672 0.19193083
0.023443043 -0.23102847 -0.22585179 -0.07699591 0.14871788 -0.24110827 0.03344965 -0.2789508
-0.0058856606 0.0591982 -0.11258817 -0.030967176 -0.24766514 -0.22548667 -0.15616243 -0.19667608
0.24168006 -0.23849502 -0.046571642 -0.13182431 0.1291785 -0.2720259 0.1206612 0.19072631
-0.086839154 0.23758546 0.1063703 -0.19437854 0.0049866736 -0.14247765 -0.21451911 -0.29024965
0.14740694 -0.024619013 0.13180903 -0.033745795 0.30190733 -0.13187727 0.07271448 -0.09480117
-0.16744483 0.07403618 0.2176731 0.17146134 0.18595451 -0.24852431 0.0070234537 -0.18528214
-0.0742235 -0.28682554 0.085958004 -0.20563233 -0.10605058 -0.08334337 0.19493249 -0.1448706
0.15149862 -0.056383386 0.12625152 -0.1680035 0.011066496 0.17220789 0.048016936 0.073234886
0.13362515 0.118813425 0.25840947 -0.011689007 0.2393637 -0.017338157 0.1658951 0.1853798
0.30018482 -0.007764846 -0.2629053 0.13643387 0.29536083 -0.15860282 -0.06287995 -0.08727223
0.007489741 0.15059191 -0.23469035 -0.03489971 -0.06282221 -0.11680177 -0.077410474 -0.27477238
0.025075704 0.13325542 -0.24663681 0.2581556 0.035175323 0.08394703 -0.13646704 -0.28505787
0.12859645 0.15359294 -0.2155385 -0.043067664 0.059264272 0.09123811 -0.14922416 0.08730534
0.1994398 0.042407602 -0.123653695 -0.15325576 -0.23553395 -0.24048012 0.03593886 0.19547483
0.2423236 -0.024537444 0.14766645 0.15317747 -0.024779022 0.20854226 0.16754773 -0.24845193
-0.013447702 0.13473904 0.21526119 0.284663 0.2145507 -0.043420315 -0.024584115 0.2696025
0.18625608 -0.21552327 0.23879561 -0.2268039 -0.122549534 0.22421864 0.25004157 0.11226788
-0.23210949 0.25319389 0.10855329 -0.08661413 -0.21672271 0.26379386 0.17945582 -0.25853065
0.22193727 -0.20420572 -0.18250176 0.09966868 -0.05461636 0.07251081 -0.27302393 0.15486881
0.24338725 -0.02274251 0.20681044 0.04555759 -0.036766738 0.010493934 -0.035550237 -0.18068026
-0.028225899 -0.16012448 0.12841526 0.22048298 0.21224728 -0.11453849 0.20645466 0.16402242
0.20926347 -0.038103014 -0.2998959 0.00049707294 0.20910498 -0.06236118 -0.045481443 -0.29436433
-0.061856017 0.008162081 0.13018438 -0.20009866 0.23503467 0.0803906 -0.123379365 -0.11513327
0.057058543 -0.12284897 -0.30071077 0.124649376 -0.27784154 -0.073831335 -0.29779094 -0.09208146
-0.23165478 0.281037 0.044134587 -0.0025182664 -0.26528755 -0.2758869 0.067007065 0.10750756

attention.in_proj_bias f4 [48]
00000000: 0000 0000 0000 0000 0000 0000 0000 0000
00000010: 0000 0000 0000 0000 0000 0000 0000 0000
00000020: 0000 0000 0000 0000 0000 0000 0000 0000
00000030: 0000 0000 0000 0000 0000 0000 0000 0000
00000040: 0000 0000 0000 0000 0000 0000 0000 0000
00000050: 0000 0000 0000 0000 0000 0000 0000 0000
00000060: 0000 0000 0000 0000 0000 0000 0000 0000
00000070: 0000 0000 0000 0000 0000 0000 0000 0000
00000080: 0000 0000 0000 0000 0000 0000 0000 0000
00000090: 0000 0000 0000 0000 0000 0000 0000 0000
000000a0: 0000 0000 0000 0000 0000 0000 0000 0000
000000b0: 0000 0000 0000 0000 0000 0000 0000 0000
0.0 0.0 0.0 0.0 0.0 0.0 0.0 0.0
0.0 0.0 0.0 0.0 0.0 0.0 0.0 0.0
0.0 0.0 0.0 0.0 0.0 0.0 0.0 0.0
0.0 0.0 0.0 0.0 0.0 0.0 0.0 0.0
0.0 0.0 0.0 0.0 0.0 0.0 0.0 0.0
0.0 0.0 0.0 0.0 0.0 0.0 0.0 0.0

attention.out_proj.weight f4 [16, 16]
00000000: ddbd 833c 362e 55bc 4c5e b43c 5e0c abbb
00000010: 12ae fe3c f90b 17bd 14f2 7d3c 04f3 3e3c
00000020: fb5c 1bbc e616 0e3d 8ae0 c0bc 3031 ccbc
00000030: 73b4 063d aef0 d9bc 98fa b83c bbbb bc3c
00000040: 6fae 95bb eebd cbbb 4e20 443d 1f05 55bc
00000050: 12db 803d a3b5 193b 0070 a43d f0a1 213d
00000060: 7c69 4b3c 66f6 edbc 3d2b 66bd 8891 0fbd
00000070: 135e b73d 29b0 513d fbf3 dc3d 68fb 3a3a
00000080: 79cb c93b 605b 2f3a acfe 983c 8a6e 08bd
00000090: 4bb9 613b 7860 38bd ac38 953c dc2a 7bbc
000000a0: 318c ba3b 659d d83c 7ecf c8bc 2e8e 0abd
000000b0: 4c1c d7b9 6d5e cbbc fe7c 0dbc 9597 e13c
000000c0: a961 c83c f77b 93bd 6e95 a53d 6242 03bc
000000d0: a3b7 fe3c 1670 19bd c08b 593d 98b8 b3bc
000000e0: 58f0 443d aada b23c 7fbd 07bd 3563 44bd
000000f0: b7b6 1b3e 8af5 8a3c da8c c43d 8427 4d3c
00000100: 93b4 5fbd 0898 d83d 3f97 84bd 3ac1 6b3d
00000110: 5e45 15bd 9c0e 833d d462 55bd cc18 c63d
00000120: ae6a 66bd 117b c0bd 8858 ff3c 46bf 183d
00000130: 5cbf 2cbe b1fd c73c ebec c7bd 5b98 09bd
00000140: 2a15 373d 9dc1 18bd 9c1c 183c 4b40 f9bb
00000150: 8746 5cbc cb63 a1bc 5fae 69bd 2ff9 96bd
00000160: 502b 933d 1514 7c3d 8be5 323d cb04 663c
00000170: 6a95 2c3b c19b 6cbb b64b 5bbd e070 50bd
00000180: 2de6 123d b35b 38bb c3b6 06bd 683d d03c
00000190: 4217 53bd bb07 823b d091 0abe 5365 98bd
000001a0: aa07 133c 37d9 a33c 046d ac3d f642 323b
000001b0: e37f edbd 0fdb 1fbd a982 11be 007c 74bd
000001c0: 7b02 8c3c 70a4 293c 9f6d 54bc e686 6b3c
000001d0: 487a a7b9 ceef 603c 17a6 86bd f0ef 42bc
000001e0: f407 b33c 9c38 65bc 487f 4d3d 2192 bd3c
000001f0: ace3 b6bd 0f5c 99bb 230a a6bd 9270 47bd
00000200: ac39 663c 0d20 29bd eed7 423d bc23 ccbc
00000210: 2e90 723d d4d4 84ba b226 1f3d dbf4 81ba
00000220: a2df ba3c b4a2 dc3c 0a48 c3bc dfb4 c8bc
00000230: 4fb5 053e d519 e83b 0787 e53d ae74 21bc
00000240: e28d a2bb 2843 cab9 795c 933d e244 e6bc
00000250: 1e8e 5a3d b9a1 e8bc a26b 233e 3337 533d
00000260: 39da 9c3c 875e 513c 07d4 d0bd 64ca 7ebc
00000270: 0008 2e3e b5b0 153d b500 243e 7b15 a43d
00000280: c828 3d3d 8a27 2abd 0d6f 6e3d 5c1e 51bd
00000290: 989d 12bc 7b3b febc 42ef 79bb f1b0 6bbd
000002a0: 0c4b 453d 2069 af3d acf3 1c3c bfe8 4dbc
000002b0: f945 413d 4e6f debc 90f0 00bc cf6c e73c
000002c0: 3e55 b5bc 9844 963c 3846 cc3c 4af0 14bd
000002d0: f587 0a3d 7e00 433a 05f1 f33d e688 a13d
000002e0: 0311 68bc 532a 943c aa2d 8dbd 82e9 d7bc
000002f0: ec6f aa3d 8225 d33c 4adb e83d f664 b93d
00000300: 5eb9 5b3c 845a 293c 739c 953c bc1d 153c
00000310: af47 5e3d 4ed7 493d 744e 1e3b 0820 603d
00000320: 051f 243d c5a4 f7bc 7a48 fabb 946f 43ba
00000330: c634 7a3d a3c8 fb3c 4a05 3d3d eca1 02bd
00000340: e6c4 bd3c e1c0 5dbd b86e 5a3d a722 6fbc
00000350: 4cd8 49bc c079 34bd d651 0dbc 8558 c5bd
00000360: ab80 513d 76f9 8b3d 37f2 103b 1010 1f3c
00000370: 9bda 9c3d e34e 84bc 0c58 2fbc e225 f9bb
00000380: eba6 48bd e842 23bd 1f36 6b3c 0f14 e1bb
00000390: c22d 593d 9c6f 4dbc 422c 9f3d eb96 a43c
000003a0: c8d6 a03b 02bb 523c 417c 3fbd 9d06 28bc
000003b0: 0659 1a3e 36d0 943d 6aec 0b3e adf7 323c
000003c0: 30fa 61bd 3cbc ce3d 69f5 2abd 4eb2 4d3d
000003d0: 9a60 f03c 32c3 5d3d c8d8 343c a3fa 133e
000003e0: f6ca 06bd 5a83 edbd bf1e 85bc 6d9a 693d
000003f0: 924f a4bd 7ea9 443d 73f2 a73b 5f31 80bd
0.016081745 -0.013011506 0.02201762 -0.00521998 0.031088863 -0.036876652 0.01549961 0.011654619
-0.0094826175 0.034689806 -0.023544569 -0.024925798 0.032886934 -0.026604023 0.02258043 0.023038736
-0.0045679132 -0.0062177097 0.04788237 -0.013001709 0.06291784 0.0023454211 0.08029175 0.039461076
0.012415286 -0.029048156 -0.05619358 -0.0350509 0.0895349 0.05119339 0.10788723 0.00071327994
0.006158289 0.0006689336 0.018676125 -0.033308543 0.0034442719 -0.045013875 0.0182155 -0.015330043
0.0056929816 0.026442239 -0.024513002 -0.033827 -0.00041029078 -0.0248253 -0.0086357575 0.0275381
0.02446063 -0.07201379 0.08085142 -0.008011432 0.031093424 -0.03746041 0.05311179 -0.021938607
0.048080772 0.021832783 -0.033139702 -0.047946174 0.15206419 0.016962785 0.09597178 0.012521628
-0.05461557 0.10575873 -0.064741604 0.057557322 -0.036443107 0.06399271 -0.052096203 0.096726984
-0.05625408 -0.09398473 0.031170145 0.037291788 -0.16869873 0.024412962 -0.097619854 -0.033592563
0.044697918 -0.03729402 0.009284165 -0.0076065413 -0.013444549 -0.019700905 -0.05705106 -0.07371747
0.071859956 0.06154259 0.04367594 0.014039229 0.0026334175 -0.0036103579 -0.053539 -0.050888896
0.035864044 -0.002813083 -0.03288914 0.025419906 -0.051535852 0.0039682067 -0.13532186 -0.07441201
0.008973995 0.020001037 0.084192306 0.0027200556 -0.11596658 -0.03902727 -0.14209999 -0.059688568
0.017091027 0.010354146 -0.012965589 0.014375424 -0.0003194383 0.013729049 -0.06574648 -0.011898026
0.021854378 -0.0139905475 0.050170213 0.023140969 -0.08930144 -0.0046801637 -0.08107402 -0.04869134
0.014051836 -0.04129033 0.047569208 -0.024919383 0.05921953 -0.0010134229 0.038855262 -0.0009914892
0.022811715 0.026933052 -0.023838062 -0.024500309 0.13057445 0.0070831575 0.11207395 -0.009854479
-0.0049607614 -0.00038578478 0.07195372 -0.028109018 0.05335819 -0.028397428 0.15959027 0.051566314
0.019147025 0.012778885 -0.10196691 -0.015551183 0.1699524 0.036545474 0.16015895 0.080119096
0.04618147 -0.041541614 0.058211375 -0.051054344 -0.008948706 -0.031034222 -0.0038136994 -0.05754179
0.048167273 0.08564973 0.00957958 -0.012567698 0.04718587 -0.027152684 -0.007869855 0.028250126
-0.022135373 0.018343255 0.024935827 -0.03636197 0.033821065 0.0007438733 0.11911205 0.078874394
-0.014164212 0.018086588 -0.06893475 -0.026356462 0.08322129 0.025774721 0.11369951 0.0905246
0.013410894 0.010336522 0.018263077 0.0091013275 0.05426758 0.049277596 0.0024155648 0.054718047
0.040068645 -0.030229935 -0.0076380344 -0.0007455286 0.061085485 0.03073532 0.046147622 -0.031892702
0.023165178 -0.05413902 0.053328246 -0.014595664 -0.012319636 -0.044061422 -0.008625468 -0.096360244
0.051148098 0.0683469 0.0022117028 0.009708419 0.07658883 -0.016150897 -0.010702144 -0.007603393
-0.04898731 -0.03985873 0.014356165 -0.0068688462 0.053022154 -0.012538817 0.077721134 0.020091495
0.0049084164 0.012861969 -0.046749357 -0.010255483 0.15073022 0.072662756 0.13664404 0.010923308
-0.055170238 0.100944966 -0.041737948 0.050218873 0.029342938 0.05414123 0.011038013 0.14451079
-0.032908402 -0.11597319 -0.016250012 0.057032038 -0.08022989 0.048013203 0.0051253377 -0.06259417

attention.out_proj.bias f4 [16]
00000000: 80c6 52bb b486 933a f7d0 b83b d606 e83b
00000010: 3889 a0bc c1dd b93b 5eb4 e93a c0f8 1c3a
00000020: 6e28 63bc e5df 80bc 7180 63bb 2940 90bb
00000030: 8c65 c5bb 38d9 cebb 66bf f2ba 717a 30bb
-0.0032161772 0.0011255355 0.005640145 0.007080893 -0.019596681 0.005672187 0.0017830243 0.00059879944
-0.01386462 -0.015731761 -0.0034714008 -0.0044021797 -0.006024068 -0.0063125156 -0.0018520176 -0.002692845
