results/attention_layer/checkpoints/attention_layer_results_method_GD_lr_0.5.pth (torch, 8024 bytes, 4 tensors)

attention.in_proj_weight f4 [48, 16]
000000 72 10 0a 3e 00 cc fd 3b 00 bf 6b be 60 cf c1 bd
       0.13482836 0.007745266 -0.2302208 -0.09463382
000010 ea bd 72 3e 58 4f 5e be d8 c7 87 be de 43 8c be
       0.23705259 -0.21709955 -0.26519656 -0.2739553
000020 76 ed 2b 3e f9 10 82 3e 18 d1 00 bd 2e 78 67 3e
       0.16789803 0.25403574 -0.031449407 0.22604439
000030 00 fe 13 3d 0c 48 fd bd 80 9c b9 bb c6 e3 b2 bd
       0.036130905 -0.123672575 -0.005664408 -0.087348506
000040 00 e5 13 3d cc 3f 0b be 4a ec 3f be 60 ba ee bc
       0.036107063 -0.13598555 -0.18742481 -0.029141605
000050 3f 59 17 be 42 fc 3f 3e dc 9a 6d be ad 1c 8a 3e
       -0.14780138 0.18748572 -0.23203605 0.26975003
000060 74 4b 12 3e dd 38 88 3e d0 80 85 3c 56 5f 41 be
       0.14286596 0.26605883 0.016296774 -0.18884024
000070 0b 33 3a be 7c ae 4c be 74 e4 0e be 4b c7 8f be
       -0.18183534 -0.19988436 -0.13954335 -0.28081736
000080 06 8c f4 bd e0 41 39 bd 5e 5a 09 3e c4 cc 9b be
       -0.1194077 -0.04522884 0.13413379 -0.3042966
000090 00 6e dc 3b c0 b8 9d 3c 33 50 8d 3e 18 36 70 3d
       0.00672698 0.019253135 0.2760025 0.058645338
0000a0 a2 11 18 3e 5f 58 9c 3e 60 73 ba 3d d0 6b 57 bd
       0.14850476 0.30536172 0.09104037 -0.052593052
0000b0 88 d8 67 3d a0 54 39 bc 27 89 11 be 88 a8 33 be
       0.056602985 -0.01131168 -0.14212476 -0.17544758
0000c0 78 a0 42 3e 90 75 47 3d e3 6f 7e be 10 a1 b3 bc
       0.19006526 0.0486961 -0.24847369 -0.021927387
0000d0 c0 f6 1e 3c 27 0c 8c 3e 5d 67 99 be 84 89 44 3e
       0.0097023845 0.27353022 -0.29961672 0.19193083
0000e0 a0 0b c0 3c ba 92 6c be b1 45 67 be 08 b0 9d bd
       0.023443043 -0.23102847 -0.22585179 -0.07699591
0000f0 80 49 18 3e 16 e5 76 be 80 02 09 3d a4 d2 8e be
       0.14871788 -0.24110827 0.03344965 -0.2789508
000100 80 dc c0 bb d0 79 72 3d a0 94 e6 bd e0 ae fd bc
       -0.0058856606 0.0591982 -0.11258817 -0.030967176
000110 ee 9b 7d be fa e5 66 be 0b e9 1f be 74 65 49 be
       -0.24766514 -0.22548667 -0.15616243 -0.19667608
000120 fa 7a 77 3e 0a 38 74 be e8 c1 3e bd f4 fc 06 be
       0.24168006 -0.23849502 -0.046571642 -0.13182431
000130 5e 47 04 3e fb 46 8b be 38 1d f7 3d c2 4d 43 3e
       0.1291785 -0.2720259 0.1206612 0.19072631
000140 ba d8 b1 bd 9a 49 73 3e ac d8 d9 3d 2b 0b 47 be
       -0.086839154 0.23758546 0.1063703 -0.19437854
000150 40 67 a3 3b a9 e5 11 be e6 aa 5b be 9a 9b 94 be
       0.0049866736 -0.14247765 -0.21451911 -0.29024965
000160 d8 f1 16 3e d0 ad c9 bc f2 f8 06 3e 08 39 0a bd
       0.14740694 -0.024619013 0.13180903 -0.033745795
000170 99 93 9a 3e d6 0a 07 be 54 eb 94 3d 1e 27 c2 bd
       0.30190733 -0.13187727 0.07271448 -0.09480117
000180 a8 76 2b be 48 a0 97 3d b2 e5 5e 3e 90 93 2f 3e
       -0.16744483 0.07403618 0.2176731 0.17146134
000190 dc 6a 3e 3e 28 7d 7e be 00 25 e6 3b 9a ba 3d be
       0.18595451 -0.24852431 0.0070234537 -0.18528214
0001a0 7e 02 98 bd cc da 92 be c0 0a b0 3d 48 91 52 be
       -0.0742235 -0.28682554 0.085958004 -0.20563233
0001b0 0c 31 d9 bd ee af aa bd 62 9c 47 3e f5 58 14 be
       -0.10605058 -0.08334337 0.19493249 -0.1448706
0001c0 74 22 1b 3e 44 f2 66 bd 14 48 01 3e 1c 09 2c be
       0.15149862 -0.056383386 0.12625152 -0.1680035
0001d0 40 50 35 3c 44 57 30 3e 68 ad 44 3d 2c fc 95 3d
       0.011066496 0.17220789 0.048016936 0.073234886
0001e0 08 d5 08 3e 74 54 f3 3d 3f 4e 84 3e 40 83 3f bc
       0.13362515 0.118813425 0.25840947 -0.011689007
0001f0 c2 1b 75 3e c0 08 8e bc 68 e0 29 3e 34 d4 3d 3e
       0.2393637 -0.017338157 0.1658951 0.1853798
000200 d3 b1 99 3e 40 70 fe bb 86 9b 86 be 52 b5 0b 3e
       0.30018482 -0.007764846 -0.2629053 0.13643387
000210 89 39 97 3e c7 68 22 be 34 c7 80 bd c8 bb b2 bd
       0.29536083 -0.15860282 -0.06287995 -0.08727223
000220 80 6c f5 3b c4 34 1a 3e ab 52 70 be 00 f3 0e bd
       0.007489741 0.15059191 -0.23469035 -0.03489971
000230 ee a8 80 bd c4 35 ef bd 62 89 9e bd f7 ae 8c be
       -0.06282221 -0.11680177 -0.077410474 -0.27477238
000240 90 6b cd 3c 1c 74 08 3e 5c 8e 7c be f9 2c 84 3e
       0.025075704 0.13325542 -0.24663681 0.2581556
000250 00 14 10 3d 6c ec ab 3d 04 be 0b be 1b f3 91 be
       0.035175323 0.08394703 -0.13646704 -0.28505787
000260 ca ae 03 3e 78 47 1d 3e 20 b6 5c be b8 67 30 bd
       0.12859645 0.15359294 -0.2155385 -0.043067664
000270 18 bf 72 3d 0c db ba 3d 38 ce 18 be 24 cd b2 3d
       0.059264272 0.09123811 -0.14922416 0.08730534
000280 f2 39 4c 3e 98 b3 2d 3d 26 3e fd bd 14 ef 1c be
       0.1994398 0.042407602 -0.123653695 -0.15325576
000290 d0 2f 71 be 6c 40 76 be a0 34 13 3d 8e 2a 48 3e
       -0.23553395 -0.24048012 0.03593886 0.19547483
0002a0 ae 23 78 3e c0 02 c9 bc e0 35 17 3e 8e da 1c 3e
       0.2423236 -0.024537444 0.14766645 0.15317747
0002b0 60 fd ca bc 1a 8c 55 3e a2 91 2b 3e 2f 6a 7e be
       -0.024779022 0.20854226 0.16754773 -0.24845193
0002c0 c0 53 5c bc 08 f9 09 3e 6e 6d 5c 3e 59 bf 91 3e
       -0.013447702 0.13473904 0.21526119 0.284663
0002d0 2e b3 5b 3e 80 d9 31 bd a0 64 c9 bc 57 09 8a 3e
       0.2145507 -0.043420315 -0.024584115 0.2696025
0002e0 ea b9 3e 3e 22 b2 5c be d6 86 74 3e 48 3f 68 be
       0.18625608 -0.21552327 0.23879561 -0.2268039
0002f0 40 fb fa bd 92 99 65 3e 73 05 80 3e b4 ec e5 3d
       -0.122549534 0.22421864 0.25004157 0.11226788
000300 1c ae 6d be a1 a2 81 3e 30 51 de 3d c0 62 b1 bd
       -0.23210949 0.25319389 0.10855329 -0.08661413
000310 8f ec 5d be fd 0f 87 3e 44 c3 37 3e 21 5e 84 be
       -0.21672271 0.26379386 0.17945582 -0.25853065
000320 86 43 63 3e 4e 1b 51 be be e1 3a be 18 1f cc 3d
       0.22193727 -0.20420572 -0.18250176 0.09966868
000330 68 b5 5f bd 8c 80 94 3d cb c9 8b be ee 95 1e 3e
       -0.05461636 0.07251081 -0.27302393 0.15486881
000340 82 3a 79 3e 80 4e ba bc 1e c6 53 3e 98 9a 3a 3d
       0.24338725 -0.02274251 0.20681044 0.04555759
000350 b8 98 16 bd c0 ee 2b 3c 20 9d 11 bd 3f 04 39 be
       -0.036766738 0.010493934 -0.035550237 -0.18068026
000360 00 3a e7 bc ac f7 23 be 4a 7f 03 3e 4a c6 61 3e
       -0.028225899 -0.16012448 0.12841526 0.22048298
000370 5a 57 59 3e 28 93 ea bd da 68 53 3e 7e f5 27 3e
       0.21224728 -0.11453849 0.20645466 0.16402242
000380 2a 49 56 3e e8 11 1c bd f5 8b 99 be 00 4e 02 3a
       0.20926347 -0.038103014 -0.2998959 0.00049707294
000390 9e 1f 56 3e 70 6e 7f bd c0 4a 3a bd ec b6 96 be
       0.20910498 -0.06236118 -0.045481443 -0.29436433
0003a0 bc 5c 7d bd 40 ba 05 3c 0e 4f 05 3e aa e6 4c be
       -0.061856017 0.008162081 0.13018438 -0.20009866
0003b0 ee ac 70 3e d4 a3 a4 3d 52 ae fc bd fe ca eb bd
       0.23503467 0.0803906 -0.123379365 -0.11513327
0003c0 38 b6 69 3d 3e 98 fb bd c3 f6 99 be 2c 48 ff 3d
       0.057058543 -0.12284897 -0.30071077 0.124649376
0003d0 3f 41 8e be e2 34 97 bd 0e 78 98 be 34 95 bc bd
       -0.27784154 -0.073831335 -0.29779094 -0.09208146
0003e0 e9 36 6d be 15 e4 8f 3e 78 c6 34 3d 80 09 25 bb
       -0.23165478 0.281037 0.044134587 -0.0025182664
0003f0 c5 d3 87 be 0c 41 8d be 00 3b 89 3d ec 2c dc 3d
       -0.26528755 -0.2758869 0.067007065 0.10750756

attention.in_proj_bias f4 [48]
000000 00 00 00 00 00 00 00 00 00 00 00 00 00 00 00 00
       0.0 0.0 0.0 0.0
000010 00 00 00 00 00 00 00 00 00 00 00 00 00 00 00 00
       0.0 0.0 0.0 0.0
000020 00 00 00 00 00 00 00 00 00 00 00 00 00 00 00 00
       0.0 0.0 0.0 0.0
000030 00 00 00 00 00 00 00 00 00 00 00 00 00 00 00 00
       0.0 0.0 0.0 0.0
000040 00 00 00 00 00 00 00 00 00 00 00 00 00 00 00 00
       0.0 0.0 0.0 0.0
000050 00 00 00 00 00 00 00 00 00 00 00 00 00 00 00 00
       0.0 0.0 0.0 0.0
000060 00 00 00 00 00 00 00 00 00 00 00 00 00 00 00 00
       0.0 0.0 0.0 0.0
000070 00 00 00 00 00 00 00 00 00 00 00 00 00 00 00 00
       0.0 0.0 0.0 0.0
000080 00 00 00 00 00 00 00 00 00 00 00 00 00 00 00 00
       0.0 0.0 0.0 0.0
000090 00 00 00 00 00 00 00 00 00 00 00 00 00 00 00 00
       0.0 0.0 0.0 0.0
0000a0 00 00 00 00 00 00 00 00 00 00 00 00 00 00 00 00
       0.0 0.0 0.0 0.0
0000b0 00 00 00 00 00 00 00 00 00 00 00 00 00 00 00 00
       0.0 0.0 0.0 0.0

attention.out_proj.weight f4 [16, 16]
000000 69 34 a4 3c b7 2d 5e bc 19 1e a0 3c a2 e3 01 bc
       0.020044522 -0.013560704 0.019545602 -0.007927807
000010 e4 35 51 3c 88 2d 59 bd 8a ff 8f 3b 64 42 ca bb
       0.012769196 -0.053021938 0.0043944763 -0.006172465
000020 a6 4b c3 bc 6c 3f 45 3d 4a ad 9a bc c5 7e 03 bd
       -0.023839783 0.048156187 -0.018881459 -0.03210332
000030 4e 5e 9f 3c 5b 84 2d bd e7 da 97 3b 98 57 36 3d
       0.019454148 -0.042362552 0.0046342495 0.04451713
000040 60 1e 3f bc a6 ae 0a 3c 51 0b 44 3d c8 a7 86 bc
       -0.011664957 0.008464491 0.047862355 -0.016437426
000050 16 a0 48 3d 21 18 3f bc 94 95 ab 3d 3c 37 1a 3d
       0.048980795 -0.011663468 0.08378139 0.03765033
000060 9f 43 1e bc 2e 81 d3 bc b6 15 8e bd 8e 88 25 bd
       -0.009659677 -0.025818434 -0.06937735 -0.04041343
000070 7d 26 9f 3d ea f1 26 3d c0 48 ca 3d 9a 0f f6 3c
       0.07771013 0.04075805 0.09877157 0.030036736
000080 30 2c 8d 3c d8 9d 98 bc f2 6a 70 3c 74 d5 03 bd
       0.017232984 -0.018629953 0.014673935 -0.032185987
000090 52 33 c8 3b b2 36 0f bd 50 cd 82 3b fb 1f 11 bd
       0.0061096335 -0.03496427 0.0039917603 -0.03543089
0000a0 0e 5b db 3c 0b cb fd 3c bd 78 88 3a ed 5a ae bc
       0.026776817 0.030980607 0.0010411959 -0.021283591
0000b0 55 53 05 3c 1a 8d 9f bc 2a 5d 38 bc 75 36 6f b9
       0.008137544 -0.019476462 -0.011252681 -0.00022813103
0000c0 5a 2d d7 3c 9d 54 97 bd db 9f 94 3d 87 e4 09 bc
       0.026266742 -0.073891856 0.072570525 -0.008416302
0000d0 33 14 0a 3d 23 cf dd bc 0e 12 43 3d 7c 5e d3 bc
       0.03371067 -0.02707631 0.04762464 -0.02580189
0000e0 b8 9d 5a 3d fe 9a a8 3c f7 f8 03 bd 15 26 21 bd
       0.05337307 0.020581719 -0.032219853 -0.03934296
0000f0 5e 98 20 3e d5 e0 ec 3c 6c 14 d0 3d 6b 25 80 b9
       0.15683123 0.028915802 0.10160145 -0.0002444194
000100 4b bb 54 bd 88 5d d0 3d fb 94 83 bd 88 d7 64 3d
       -0.05193643 0.1017409 -0.064249 0.05586961
000110 c6 3a 0a bd 21 51 81 3d ac 21 7c bd 08 63 d2 3d
       -0.033747457 0.06314302 -0.06155555 0.10272795
000120 7b 3f 59 bd 2b 7c d0 bd c1 98 b2 3c 9e 8d 36 3d
       -0.053039055 -0.10179933 0.021801354 0.04456865
000130 37 c1 2c be a7 e1 f1 3c 9a 3a d2 bd 62 7d 2f bd
       -0.1687058 0.029526545 -0.102650836 -0.042844184
000140 bc 44 fa 3c 2b c8 bc bc e1 37 74 3c 3b 9e 22 bc
       0.030550353 -0.023044666 0.014905901 -0.00992542
000150 bd cf da bc ee f3 15 bd b2 b4 2f bd 80 8f 92 bd
       -0.026710385 -0.036609583 -0.042896934 -0.07156277
000160 b8 ed 35 3d 3d 1a 86 3d d3 20 a5 3c a8 4c 0a ba
       0.04441616 0.06547973 0.020157253 -0.0005275705
000170 f4 22 1b bc 52 f1 b4 bc fe 13 78 bd dd af a2 bb
       -0.009468783 -0.022087727 -0.06056594 -0.004964812
000180 80 3a 5d 3c 67 87 9c 3c 36 3f 19 bd 5a b7 16 3d
       0.013502717 0.019107534 -0.0374138 0.03679595
000190 4c 18 82 bd da a9 ab bb 06 31 e4 bd d5 b2 66 bd
       -0.063522905 -0.0052387537 -0.11142163 -0.05632289
0001a0 70 36 55 bc dc 5d df 3b ba 07 85 3d 8c e6 3e 3c
       -0.013013467 0.006816609 0.06495614 0.011651646
0001b0 1c e6 d9 bd e9 f6 af bc ae ff 0c be c4 cf 18 bd
       -0.10639593 -0.02148004 -0.13769409 -0.037307516
0001c0 2f cb 52 3c fb 0a 51 3c cd b4 93 bc 84 01 57 bb
       0.012865826 0.012758966 -0.018030548 -0.00328073
0001d0 73 e4 95 bc 8d cd 6d 3b 75 bd 72 bd 3b e2 8d bc
       -0.01829741 0.0036285848 -0.05926271 -0.01731979
0001e0 2c a7 e5 3b 07 02 c6 3b e0 a5 24 3d 05 2b 6e 3c
       0.007008454 0.006042722 0.040197253 0.014536624
0001f0 2c 86 b6 bd 08 4f 52 bc 77 df 97 bd e6 4c 06 bc
       -0.0891231 -0.012836225 -0.074156694 -0.008197045
000200 f8 b2 1b 3c d8 70 39 bd 97 dd 38 3d 2d ca d3 bc
       0.009503119 -0.04527363 0.0451332 -0.02585324
000210 58 a8 4f 3d d4 27 27 bb ba f7 4f 3d 7a 4f 3d bc
       0.050697654 -0.0025505917 0.05077336 -0.011554593
000220 16 4b 58 3c 79 0e 21 3d 6d f4 d4 bc 54 22 c3 bc
       0.013201496 0.039320443 -0.025995458 -0.02382008
000230 a6 54 0c 3e 3d a5 d1 3b e5 89 c2 3d 22 eb 89 3b
       0.13704166 0.0063978718 0.094989575 0.004208938
000240 42 08 c8 3b a2 f8 b9 bb 95 de 9a 3d ad 5c 05 bd
       0.0061045 -0.0056753913 0.075619854 -0.032559086
000250 a7 d8 64 3d 41 d8 03 bd 6a 5d 1c 3e 1a ed 63 3d
       0.05587068 -0.032188658 0.1527001 0.05564604
000260 6c 50 d7 3c 83 3f 61 3c 37 2c c8 bd 69 1b bf bc
       0.026283465 0.0137480525 -0.09774058 -0.0233285
000270 b8 ad 2e 3e 28 0f fa 3c 1a 23 29 3e 17 68 93 3d
       0.17058456 0.030524805 0.16517296 0.07197588
000280 a7 58 6d 3d 72 be 1d bd 22 e3 83 3d e8 26 49 bd
       0.057945874 -0.0385117 0.064398065 -0.04910937
000290 c6 bc 2e 3c fc 71 9b bc 7d 4b 9c bb 5e a6 64 bd
       0.010665124 -0.01897525 -0.004769741 -0.055822723
0002a0 ed e0 73 3d 5c ed 8f 3d ad 87 62 3c 70 48 4e bc
       0.059540678 0.070276946 0.013826293 -0.012590513
0002b0 de 93 5b 3d ae ed e2 bc 7d c7 72 bb 10 90 4a 3a
       0.053607814 -0.027701225 -0.0037045174 0.00077271555
0002c0 c9 6b 81 bc 30 21 f6 3b 18 37 95 3c 1c 34 0d bd
       -0.015798466 0.0075112805 0.018214747 -0.034473523
0002d0 97 5d 25 3d d4 51 8e 3c 6b d3 dc 3d af 3e 94 3d
       0.040372457 0.017373003 0.10782512 0.072385184
0002e0 3d 3e 39 3c 4f 1b a3 3c 53 77 3e bd 3c b1 4b bc
       0.011306343 0.019910483 -0.046500515 -0.012432393
0002f0 2a 51 ba 3d fe 1d 22 3d 90 f8 f0 3d 33 08 4c 3d
       0.09097512 0.039579384 0.117661595 0.049812507
000300 28 bf 44 39 70 1d a5 3c 55 2f e4 3c a5 d3 45 3c
       0.00018763228 0.020155638 0.0278546 0.012074386
000310 1d 40 17 3d 71 c7 e5 3c c1 c4 33 3c c0 b6 2f 3d
       0.036926378 0.028049203 0.010972203 0.042898893
000320 be fc 4a 3c b9 50 8a bc bb d0 80 bc cd 8d 96 bc
       0.01238936 -0.016884195 -0.01572453 -0.018378163
000330 b9 b2 5d 3d 9f cf 86 3c 93 43 23 3d a7 76 56 3c
       0.05412552 0.016456423 0.039859366 0.013089812
000340 8d b3 67 3c 5d a1 17 bd ea 97 6b 3d 24 34 e2 bc
       0.014141929 -0.037019122 0.057517923 -0.027612753
000350 67 e9 89 bc 2e 67 2e bd b2 aa 64 bb 9b 2f 94 bd
       -0.016834928 -0.04257887 -0.0034891781 -0.072356425
000360 fb 4d 13 3d 31 41 7c 3d 5a d4 4e bc 2b ca d4 ba
       0.03596304 0.06158561 -0.012623871 -0.0016234567
000370 0a 99 67 3d 82 bb e3 bc c0 81 41 bb 9f 4a 17 3c
       0.056542434 -0.027799372 -0.00295268 0.0092341
000380 67 c1 54 bd cc 01 f9 bc a2 ff b0 3b 27 76 13 bc
       -0.051942255 -0.030396365 0.0054015676 -0.009000338
000390 ed ee 56 3d 74 ed dc 3a 8a 2e 9c 3d 76 bf 19 3d
       0.05247395 0.0016855435 0.07626064 0.037536107
0003a0 91 20 b4 3b b4 37 1f 3a 18 ad 18 bd d5 b7 a6 3a
       0.0054970463 0.0006073669 -0.03727445 0.0012719581
0003b0 78 5f 0f 3e 4f fa 9f 3d ff 99 08 3e a6 81 b0 bb
       0.14001262 0.078114145 0.13339995 -0.005386549
0003c0 75 d6 6f bd 2c df d9 3d 5e f7 16 bd 5f ef 58 3d
       -0.05855413 0.1063827 -0.036857 0.052962657
0003d0 74 df cd 3c 34 07 29 3d 82 71 ab 3c 11 5e 0e 3e
       0.025130965 0.041266635 0.020928148 0.13903071
0003e0 fc 3a 3e bd 6a e0 eb bd 1a d8 d3 bc e5 48 6a 3d
       -0.04644297 -0.11517413 -0.025859881 0.057198424
0003f0 69 ee 96 bd 99 58 42 3d e4 4c 39 3a 00 49 51 bd
       -0.07369692 0.047447775 0.00070686475 -0.05109501

attention.out_proj.bias f4 [16]
000000 10 23 05 bc 9a a6 31 bc 2f c5 80 3c c0 9f 0d 3c
       -0.008126035 -0.010842944 0.015719024 0.008644044
000010 b0 ab c6 bb 74 e3 34 3c 00 c7 44 bc bb d8 0e 3c
       -0.006062947 0.011040557 -0.012010336 0.008718665
000020 8c 6c 71 bc fa 46 d6 bb 30 74 df b9 76 97 8d 3b
       -0.014735352 -0.006539223 -0.0004262044 0.004321034
000030 04 73 af 3b 88 a1 da bb c3 23 78 bc fc d1 e4 3b
       0.005354287 -0.006672088 -0.015145245 0.00698304
