results/attention_layer/checkpoints/attention_layer_results_method_GD+None_lr_0.001_variant_None_L_1.0_reg_0.01.pth (torch, 8176 bytes, 4 tensors)

attention.in_proj_weight f4 [48, 16]
44.0448 -51.624123 9.534859 22.132227 21.69996 -17.707542 -9.399598 52.457214
21.932995 -19.52766 30.370571 23.903101 -86.57769 32.555847 39.11801 -50.77571
54.09431 -51.4366 -48.971546 -42.264328 14.716392 3.206977 -1.7734346 43.995808
32.092793 -32.298557 88.69039 -1.9093468 -54.942368 3.7521641 35.839943 -35.166958
7.80463 -18.102652 14.913655 -49.640316 -17.460129 51.1902 -74.15045 42.821663
-9.93618 -11.480563 39.523438 -31.940268 33.739746 -6.1098204 -27.465473 -3.9659026
-1.5667033 49.235268 -27.789679 -41.52109 -9.243967 9.795399 49.631577 -58.28839
-17.080093 20.554384 -62.157246 -8.538314 16.113255 -28.528706 -13.871318 25.875446
-41.87556 -20.753504 12.606433 79.35692 2.927649 8.951616 -77.88255 -33.892597
51.25424 28.594912 -90.61104 90.87995 -3.6512196 -1.7139093 -22.9979 -22.00829
-18.991066 -28.680145 73.70993 9.022577 -8.327755 12.546659 -67.9711 -46.18222
35.30012 45.48763 -28.963583 41.231743 -53.978436 3.5814102 16.650536 -8.4973955
-68.211525 -0.27447182 38.31742 -20.855078 17.578798 -12.659998 6.0363274 22.758467
12.866414 -4.3122706 33.05966 -58.927628 -71.72268 16.497803 25.392563 -64.57922
12.852154 -35.08195 -20.570568 22.970173 -8.862239 16.35973 -48.52041 -20.098225
2.7309363 -16.595894 -14.835869 17.26082 -16.633347 6.2461467 -2.3511083 18.233244
22.739813 -18.95034 -0.37753657 28.141375 -5.9393473 -25.910637 -15.321749 -27.578497
-16.019024 -28.098549 -21.064653 23.007593 -60.256233 0.9118474 -3.6000142 -22.305645
-20.98261 -64.988396 29.81358 -17.624279 30.52934 40.451023 -49.91028 95.69963
5.65175 -35.990837 60.225212 36.233948 21.6071 25.880873 5.0390334 -51.70661
25.508202 -40.502 40.66905 -23.896893 -40.836502 6.84493 13.791411 7.6956196
-40.098186 2.9796069 36.076935 -87.98918 -38.00428 -17.537626 1.1969153 -29.217997
-51.761127 2.199462 -21.390411 4.8982472 28.835945 -34.63813 50.461346 -28.653622
35.768353 1.9263983 3.4257638 1.3364875 -74.18635 3.566985 29.1849 -19.489168
-9.928772 30.615923 29.304802 -41.385017 6.0756717 -5.277411 14.958157 -39.3275
1.2969799 23.538237 53.04607 -16.741415 -15.427924 -3.4085846 31.330109 22.555593
-42.934372 -86.28247 55.52783 13.446535 19.006092 -3.837882 -21.432667 16.315317
68.14144 25.145472 83.298454 45.61663 -60.583042 17.34536 52.930798 -10.713259
25.013018 -28.385178 -11.362748 15.325474 1.9937686 -54.61225 -13.253537 -30.046694
12.369643 -41.203266 -22.568 -4.3561234 -40.506832 4.9902596 22.81967 -5.586027
47.79704 -77.15089 -27.853025 15.036408 -8.98173 -8.646536 17.372227 74.88001
17.706455 -35.320415 44.881664 -26.92879 18.350351 5.126615 28.604206 -28.840601
00000000: e02d 3042 1a7f 4ec2 c88e 1841 cd0e b141
00000010: 8599 ad41 0ca9 8dc1 c164 16c1 30d4 5142
00000020: c676 af41 a638 9cc1 eef6 f241 8d39 bf41
00000030: c727 adc2 3039 0242 d878 1c42 541a 4bc2
00000040: 9360 5842 14bf 4dc2 dde2 43c2 ac0e 29c2
00000050: 5776 6b41 1c3f 4d40 e8ff e2bf b5fb 2f42
00000060: 055f 0042 b931 01c2 7b61 b142 7a65 f4bf
00000070: fcc4 5bc2 7523 7040 1a5c 0f42 f7aa 0cc2
00000080: 87bf f940 3bd2 90c1 559e 6e41 af8f 46c2
00000090: 58ae 8bc1 c4c2 4c42 084d 94c2 6249 2b42
000000a0: 98fa 1ec1 63b0 37c1 0018 1e42 ab85 ffc1
000000b0: 80f5 0642 a683 c3c0 4ab9 dbc1 59d1 7dc0
000000c0: bc89 c8bf eaf0 4442 4351 dec1 9915 26c2
000000d0: 4ae7 13c1 f4b9 1c41 bc86 4642 5027 69c2
000000e0: 08a4 88c1 616f a441 05a1 78c2 ef9c 08c1
000000f0: f2e7 8041 ca3a e4c1 ebf0 5dc1 ea00 cf41
00000100: 9380 27c2 2d07 a6c1 f3b3 4941 beb6 9e42
00000110: 9a5e 3b40 d239 0f41 dec3 9bc2 0592 07c2
00000120: 5704 4d42 61c2 e441 da38 b5c2 89c2 b542
00000130: 95ad 69c0 6161 dbbf b3fb b7c1 fa10 b0c1
00000140: b4ed 97c1 f070 e5c1 7c6b 9342 7a5c 1041
00000150: 7c3e 05c1 1ebf 4841 34f1 87c2 98ba 38c2
00000160: 5333 0d42 55f3 3542 6bb5 e7c1 4eed 2442
00000170: ebe9 57c2 d335 6540 4c34 8541 55f5 07c1
00000180: 4d6c 88c2 9287 8cbe 0a45 1942 33d7 a6c1
00000190: 61a1 8c41 5a8f 4ac1 9829 c140 5711 b641
000001a0: d5dc 4d41 1ffe 89c0 183d 0442 e4b5 6bc2
000001b0: 0372 8fc2 80fb 8341 f823 cb41 9028 81c2
000001c0: 6ca2 4d41 eb53 0cc2 8690 a4c1 eac2 b741
000001d0: bbcb 0dc1 bae0 8241 e614 42c2 2ac9 a0c1
000001e0: a9c7 2e40 64c4 84c1 b85f 6dc1 2916 8a41
000001f0: 1811 85c1 6fe0 c740 8f78 16c0 afdd 9141
00000200: 23eb b541 4c9a 97c1 794c c1be 8921 e141
00000210: 220f bec0 fc48 cfc1 e225 75c1 c3a0 dcc1
00000220: f626 80c1 d4c9 e0c1 6984 a8c1 8d0f b841
00000230: 6206 71c2 d56e 693f a266 66c0 f671 b2c1
00000240: 63dc a7c1 0ffa 81c2 3682 ee41 86fe 8cc1
00000250: 173c f441 d9cd 2142 20a4 47c2 3666 bf42
00000260: 23db b440 9ef6 0fc2 9ee6 7042 90ef 1042
00000270: 57db ac41 070c cf41 c33f a140 92d3 4ec2
00000280: cc10 cc41 0c02 22c2 1bad 2242 d62c bfc1
00000290: 9458 23c2 ab09 db40 9fa9 5c41 8442 f640
000002a0: 8b64 20c2 e1b1 3e40 c84e 1042 76fa afc2
000002b0: 6204 18c2 0f4d 8cc1 8534 993f 75be e9c1
000002c0: 650b 4fc2 fcc3 0c40 901f abc1 71be 9c40
000002d0: 04b0 e641 728d 0ac2 6bd8 4942 9e3a e5c1
000002e0: cb12 0f42 3894 f63f b73f 5b40 0612 ab3f
000002f0: 695f 94c2 7b49 6440 ad7a e941 d1e9 9bc1
00000300: 40dc 1ec1 69ed f441 3c70 ea41 428a 25c2
00000310: e76b c240 8de0 a8c0 9c54 6f41 5c4f 1dc2
00000320: 7003 a63f 4f4e bc41 2d2f 5442 6bee 85c1
00000330: c7d8 76c1 4026 5ac0 10a4 fa41 db71 b441
00000340: ccbc 2bc2 a090 acc2 7f1c 5e42 0225 5741
00000350: 7a0c 9841 dc9f 75c0 1a76 abc1 c585 8241
00000360: 6b48 8842 ed29 c941 cf98 a642 6e77 3642
00000370: 0955 72c2 4cc3 8a41 23b9 5342 8269 2bc1
00000380: a91a c841 d814 e3c1 d1cd 35c1 2435 7541
00000390: cf33 ff3f f272 5ac2 7d0e 54c1 a15f f0c1
000003a0: 0fea 4541 25d0 24c2 448b b4c1 5d65 8bc0
000003b0: ff06 22c2 35b0 9f40 af8e b641 bcc0 b2c0
000003c0: 2b30 3f42 414d 9ac2 ffd2 dec1 2195 7041
000003d0: 2bb5 0fc1 3658 0ac1 52fa 8a41 91c2 9542
000003e0: d2a6 8d41 1b48 0dc2 d386 3342 296e d7c1
000003f0: 85cd 9241 3b0d a440 6ad5 e441 8db9 e6c1

attention.in_proj_bias f4 [48]
0.0 0.0 0.0 0.0 0.0 0.0 0.0 0.0
0.0 0.0 0.0 0.0 0.0 0.0 0.0 0.0
0.0 0.0 0.0 0.0 0.0 0.0 0.0 0.0
0.0 0.0 0.0 0.0 0.0 0.0 0.0 0.0
0.0 0.0 0.0 0.0 0.0 0.0 0.0 0.0
0.0 0.0 0.0 0.0 0.0 0.0 0.0 0.0
00000000: 0000 0000 0000 0000 0000 0000 0000 0000
00000010: 0000 0000 0000 0000 0000 0000 0000 0000
00000020: 0000 0000 0000 0000 0000 0000 0000 0000
00000030: 0000 0000 0000 0000 0000 0000 0000 0000
00000040: 0000 0000 0000 0000 0000 0000 0000 0000
00000050: 0000 0000 0000 0000 0000 0000 0000 0000
00000060: 0000 0000 0000 0000 0000 0000 0000 0000
00000070: 0000 0000 0000 0000 0000 0000 0000 0000
00000080: 0000 0000 0000 0000 0000 0000 0000 0000
00000090: 0000 0000 0000 0000 0000 0000 0000 0000
000000a0: 0000 0000 0000 0000 0000 0000 0000 0000
000000b0: 0000 0000 0000 0000 0000 0000 0000 0000

attention.out_proj.weight f4 [16, 16]
-0.015026669 -0.050051086 -0.004384748 0.061145674 -0.07371433 -0.17446944 -0.22623342 0.21319006
0.16498229 -0.07324474 0.03663785 -0.13887917 0.08574298 -0.095310256 0.18459599 -0.02191228
0.027070642 -0.13551486 0.1324805 -0.11616542 0.08069357 0.028438373 0.101619065 0.06895799
0.07022039 -0.12914082 0.12170561 0.17245844 0.11536784 -0.15742446 0.10070753 -0.0071544047
0.1477591 0.14292976 -0.036860846 0.016315047 0.18830265 -0.0304815 0.22109863 -0.13503002
0.0114854975 -0.1008392 -0.12999874 -0.072531804 0.06386829 -0.074381374 -0.2499908 0.05591896
0.14362341 0.09068187 0.2527602 -0.019295817 0.03771425 0.123403996 0.1571326 -0.11601779
-0.20339416 0.11691972 -0.08137585 -0.19779527 0.13193126 0.16079658 0.05311473 -0.10286267
-0.14240533 0.14299564 -0.08237922 -0.16458263 0.03451303 0.20533654 0.034029998 0.0070055863
-0.093166426 0.14745562 -0.1225566 0.2173377 -0.20436344 -0.0014379255 -0.22232367 -0.09294066
0.07976081 -0.12870103 -0.18595554 -0.17688408 0.0066589075 0.19468464 -0.025621727 -0.084264316
0.106403634 -0.038695354 -0.060700167 -0.14249519 0.15383485 0.1003445 -0.13123849 -0.2283161
0.0945744 0.048592586 0.061263934 -0.12767631 0.037812464 0.08717624 -0.20949599 -0.06883824
0.027773403 -0.025580114 0.1554706 -0.10235607 -0.24120577 0.09678904 -0.02491872 -0.14171052
0.26557064 -0.1612404 -0.122194216 0.026300402 0.13104568 -0.1462004 -0.16310008 0.04383079
0.0031428132 -0.16710001 -0.14414123 -0.17445399 -0.21909171 0.058695264 -0.07850899 -0.12569663
-0.119162545 -0.11042333 0.2206702 0.08730311 -0.079210006 0.20420274 -0.089012064 0.07693969
-0.040754445 0.06653867 -0.18754765 -0.1779757 0.135714 -0.20233862 0.1854753 -0.2365505
-0.028420972 0.20671743 -0.025859639 0.12212995 0.023717461 -0.059373915 0.12887858 -0.050859768
0.20367533 -0.008052028 -0.055171344 -0.04278406 0.23199025 0.12586498 0.1597025 0.20017889
-0.1243402 -0.08482029 0.06647826 -0.13472702 -0.03557693 0.12984301 -0.044362552 -0.08405397
-0.10990555 0.097202204 0.031868137 0.15569349 0.18337937 -0.04876527 -0.031226767 0.16918258
0.12549597 0.2145295 0.14932233 -0.13062559 0.16827056 0.026160691 -0.024571955 0.21037097
-0.16855562 0.17471959 -0.21476528 -0.02270487 0.15934674 0.0888744 -0.12573569 0.20588228
0.09656 -0.06859488 -0.14518733 -0.17900304 0.03926451 0.11706171 -0.06695889 0.17680418
0.14040972 0.01502354 -0.14679244 -0.06285678 0.09193172 0.1956672 0.054801397 -0.22709405
-0.1469474 -0.147432 -0.122466296 0.04564432 -0.18729617 -0.18271287 0.14860953 -0.10785861
0.15210104 0.08692925 -0.05501573 0.09093439 0.18288524 -0.28095704 -0.04291641 -0.16605367
0.071549825 -0.019939838 0.16564968 -0.08332407 0.022140287 0.061501775 0.16935736 0.15275115
-0.09758743 0.14453146 -0.11987038 0.07808833 0.21782862 0.058717962 -0.10406603 0.023705173
-0.12857358 0.19493952 0.11340595 0.1356124 -0.0031900853 0.21807942 0.17978252 0.040721595
0.10473659 -0.1271688 0.19843867 0.022122404 -0.118138894 -0.009457493 0.07905407 -0.03631553
00000000: 6b32 76bc 5e02 4dbd efad 8fbb e373 7a3d
00000010: 8af7 96bd 1ea8 32be bca9 67be 7f4e 5a3e
00000020: 1ef1 283e 5701 96bd 9211 163d 5736 0ebe
00000030: 049a af3d 0632 c3bd bb06 3d3e 6281 b3bc
00000040: 40c3 dd3c 68c4 0abe f8a8 073e 23e8 edbd
00000050: ac42 a53d 97f7 e83c a81d d03d d939 8d3d
00000060: b5cf 8f3d 7e3d 04be ca40 f93d f298 303e
00000070: f945 ec3d e133 21be c03f ce3d 7f6f eabb
00000080: 294e 173e 2e5c 123e 66fb 16bd 22a7 853c
00000090: 69d2 403e 57b4 f9bc ae67 623e 4f45 0abe
000000a0: ab2d 3c3c c884 cebd 641e 05be 8e8b 94bd
000000b0: 61cd 823d 4355 98bd 97fd 7fbe 480b 653d
000000c0: 0412 133e 6bb7 b93d c969 813e 4312 9ebc
000000d0: 427a 1a3d 3cbb fc3d 5ee7 203e bc9a edbd
000000e0: 8f46 50be 9b73 ef3d 62a8 a6bd d88a 4abe
000000f0: fd18 073e dca7 243e d58e 593d aaa9 d2bd
00000100: b4d2 11be 736d 123e 70b6 a8bd 5988 28be
00000110: 895d 0d3d be43 523e 0a63 0b3d 1e8f e53b
00000120: 0ace bebd 9bfe 163e f4fe fabd c68d 5e3e
00000130: a644 51be c678 bcba d1a8 63be ac57 bebd
00000140: a359 a33d 34ca 03be 216b 3ebe 1a21 35be
00000150: f732 da3b 695b 473e a8e4 d1bc c592 acbd
00000160: 26ea d93d 057f 1ebd bda0 78bd 42ea 11be
00000170: e286 1d3e 6b81 cd3d 6263 06be b2cb 69be
00000180: 39b0 c13d 0509 473d e4ef 7a3d 94bd 02be
00000190: 3ee1 1a3d 7589 b23d 1e86 56be 10fb 8cbd
000001a0: 0c85 e33c 638d d1bc af33 1f3e 0fa0 d1bd
000001b0: a5fe 76be 5539 c63d 5822 ccbc 901c 11be
000001c0: e0f8 873e 341c 25be f640 fabd f173 d73c
000001d0: d730 063e 8fb5 15be b503 27be ea87 333d
000001e0: a8f7 4d3b 441c 2bbe c299 13be 11a4 32be
000001f0: 9459 60be 726a 703d 52c9 a0bd 9eb6 00be
00000200: 7e0b f4bd a025 e2bd 5ef7 613e f9cb b23d
00000210: db38 a2bd 861a 513e f54b b6bd 8e92 9d3d
00000220: 22ee 26bd 6d45 883d 7e0c 40be 433f 36be
00000230: 9cf8 0a3e db31 4fbe 3ded 3d3e 4b3a 72be
00000240: 19d3 e8bc bcad 533e 98d7 d3bc 441f fa3d
00000250: 1f4b c23c 1032 73bd bff8 033e 5552 50bd
00000260: 4490 503e a7ec 03bc 59fb 61bd 573e 2fbd
00000270: da8e 6d3e c0e2 003e 0d89 233e b2fb 4c3e
00000280: 13a6 febd 43b6 adbd c125 883d e1f5 09be
00000290: 1db9 11bd 91f5 043e 82b5 35bd 7d24 acbd
000002a0: 2916 e1bd f311 c73d 2a88 023d 1d6e 1f3e
000002b0: cdc7 3b3e 17be 47bd 47cf ffbc 333e 2d3e
000002c0: 0482 003e 9fad 5b3e f4e7 183e b7c2 05be
000002d0: 1e4f 2c3e f24e d63c 204b c9bc 7d6b 573e
000002e0: d899 2cbe b1e9 323e 6eeb 5bbe 90ff b9bc
000002f0: cb2b 233e c803 b63d dbc0 00be ced2 523e
00000300: 40c1 c53d 797b 8cbd fdab 14be 934c 37be
00000310: d3d3 203d 0dbe ef3d be21 89bd 280c 353e
00000320: 91c7 0f3e 4b25 763c c250 16be 0ebb 80bd
00000330: b346 bc3d fc5c 483e 6e77 603d 588b 68be
00000340: 6179 16be 6af8 16be 9ccf fabd 8af5 3a3d
00000350: 91ca 3fbe 1519 3bbe 192d 183e fae4 dcbd
00000360: 60c0 1b3e f607 b23d 2d58 61bd cf3b ba3d
00000370: 4546 3b3e 9ad9 8fbe 1ec9 2fbd f909 2abe
00000380: b788 923d df58 a3bc 12a0 293e cfa5 aabd
00000390: 8c5f b53c 49e9 7b3d 046c 2d3e cc6a 1c3e
000003a0: ebdb c7bd 0e00 143e 9a7e f5bd c6ec 9f3d
000003b0: 770e 5f3e 3f82 703d 9220 d5bd 5a31 c23c
000003c0: cba8 03be 3a9e 473e 6141 e83d fadd 0a3e
000003d0: c010 51bb 3650 5f3e e918 383e b0cb 263d
000003e0: 2380 d63d 8a38 02be 8233 4b3e 0b3a b53c
000003f0: cef2 f1bd 9af3 1abc 1ae7 a13d 98bf 14bd

attention.out_proj.bias f4 [16]
0.0013886222 -0.001583302 0.0014900729 -0.0018680404 -0.0013951933 -0.0006018044 -1.5203561e-05 -0.0003298996
-0.0011800271 -9.334496e-05 7.132557e-05 -0.0018161217 -0.0010136714 -0.00082538277 0.00033103116 0.0011526009
00000000: 6e02 b63a cd86 cfba 8d4e c33a 09d9 f4ba
00000010: ebde b6ba 69c2 1dba cc12 7fb7 60f6 acb9
00000020: 24ab 9aba 32c2 c3b8 a094 9538 ef0a eeba
00000030: 2bdd 84ba 805e 58ba 408e ad39 de12 973a
