results/attention_layer/checkpoints/attention_layer_results_method_Adam+GradReg_lr_0.1_variant_GradReg_L_1.0_reg_0.01.pth (torch, 8224 bytes, 4 tensors)

attention.in_proj_weight f4 [48, 16]
000000 31 31 4b be 74 bc 63 3e 91 3b 06 bf 7f c6 f5 be
       -0.19842984 0.22239858 -0.5243464 -0.48003003
000010 a4 0f 50 3f 58 14 10 bf ab 2b fc be 5e 9e 24 bf
       0.81273866 -0.5628104 -0.49252066 -0.6430415
000020 d5 43 36 3f fd 9e fd 3d 17 ce 05 3e 5d 97 81 3d
       0.71197253 0.1238384 0.13066898 0.063276984
000030 a1 b0 7d 3c 5b b3 20 bf ec 3f 00 bf 66 4a b2 3e
       0.015484006 -0.62773675 -0.5009754 0.34822387
000040 6b 6b 29 bf 33 fa a8 be 3e 25 33 3d 14 93 c6 3e
       -0.6617953 -0.33003387 0.04373669 0.38784087
000050 c7 3c 1f bf d1 85 7c 3e e7 dc 60 bd 6c b3 ef 3e
       -0.62202114 0.24660422 -0.05489817 0.46816576
000060 be ab 49 3e 9f ed 52 3e 9b b0 36 be 53 a7 90 3d
       0.1969442 0.20598458 -0.17840807 0.070631646
000070 18 fc 8c be ac db 36 bf a1 3a 37 bf ba 20 89 bf
       -0.27536082 -0.7142894 -0.71573836 -1.0713112
000080 8b 53 10 bf e7 b3 da be d2 16 af 3e 92 e0 84 be
       -0.56377476 -0.4271538 0.34197098 -0.25952584
000090 6d 4c 5f bd 76 74 74 be af 7e 09 3f 33 d7 49 be
       -0.054516245 -0.23872551 0.5370893 -0.19710998
0000a0 73 0a c0 3e ab a7 88 3f 90 46 db be a1 4f 05 bf
       0.37507972 1.0676168 -0.42827272 -0.5207463
0000b0 9f 92 d5 3e 75 9b a1 3e 1d cf 19 bd d7 b0 6d be
       0.41713426 0.31563917 -0.037551034 -0.2321199
0000c0 e1 56 32 3f 22 da 16 be 00 cb 6e be 6f 81 0e 3e
       0.69663817 -0.14731649 -0.23319626 0.13916562
0000d0 69 93 16 3e b4 21 7c 3f fb e1 42 bf 6e 7e 33 3f
       0.1470467 0.98488927 -0.7612607 0.7011479
0000e0 2c 7d 92 3e bd ec d7 bd d8 59 1b bf c6 20 dd be
       0.28611124 -0.10543201 -0.60683966 -0.43189067
0000f0 7e 09 d9 3e c2 e3 2f bf e4 c9 59 3e bf cf 30 bf
       0.42390054 -0.68706906 0.21268421 -0.69066995
000100 5e cb 3f 3e a2 44 5d be 60 03 47 3e 9f 10 bc 3e
       0.18729922 -0.21608213 0.19434881 0.3673143
000110 c0 f9 97 be 36 18 2f bf 07 91 4f bf 60 84 68 be
       -0.29682732 -0.6839632 -0.8108067 -0.22706747
000120 ca 8a 1c 3f 31 56 19 bf 49 7d f5 bd 3c 22 c5 be
       0.61149275 -0.5989714 -0.11986787 -0.3850268
000130 c2 87 23 3f 55 ec 94 be 10 40 8e be 6d 04 ea 3e
       0.63879025 -0.29086557 -0.2778325 0.45706502
000140 f5 25 bc be dd 10 23 3f a9 c9 3f 3f f4 bf 6d be
       -0.3674771 0.63697606 0.74917084 -0.23217756
000150 04 16 d5 3e 46 96 c1 be 91 d9 6a bf d3 0b b1 be
       0.4161836 -0.37809962 -0.9173823 -0.34579334
000160 02 2b 92 be 4c ff 20 3e b5 27 02 3f 17 f7 95 bd
       -0.28548437 0.15722388 0.5084184 -0.07322519
000170 f7 8a 1e 3f 16 01 65 be 7a f9 45 3d b2 ce 19 3d
       0.61930794 -0.22363696 0.048333623 0.037550636
000180 4d 7f 9d be 45 1f 04 be d9 60 26 be 83 92 23 3e
       -0.30761185 -0.12902553 -0.16247882 0.15973859
000190 72 84 67 3e c7 0e 27 bf 6a 74 b6 be e3 8f 8b be
       0.22609118 -0.65256923 -0.35635692 -0.27258214
0001a0 e1 86 24 3e cf 79 88 bf 46 ea b6 3e cb e3 d4 be
       0.16067077 -1.0662173 0.3572561 -0.41580042
0001b0 b3 34 24 3e ea 39 56 3d f6 26 ce 3e 44 cc ae be
       0.16035728 0.052301325 0.402641 -0.34140217
0001c0 36 19 3d be 25 0f 43 bc 59 f2 75 3d 04 52 93 bb
       -0.18466648 -0.011905466 0.060045574 -0.004495861
0001d0 1e e9 72 be 4c 1c 43 be 3a f8 f4 3e bd 66 de 3e
       -0.2372174 -0.19053763 0.47845632 0.43437758
0001e0 8d fb a3 3e f9 50 bb bd 1c 70 2a 3e 57 d4 1b 3e
       0.32027856 -0.09146304 0.16644329 0.1521772
0001f0 84 dc 42 3f 7f 7a d7 bd 69 3a b6 3e 53 19 59 3d
       0.7611773 -0.10521411 0.35591438 0.053002667
000200 ea f2 3f 3f 46 fb d6 be 68 fa b0 3c b9 7b 9b bd
       0.7498003 -0.4198858 0.021603778 -0.075919576
000210 b8 72 79 3f 2b 5d f9 be ea f2 84 3e 50 93 c2 be
       0.9744067 -0.48703894 0.2596658 -0.38003016
000220 bf 7a a3 be a4 d8 64 bd de 28 49 be 62 b1 97 3e
       -0.31929585 -0.055870667 -0.19644496 0.2962752
000230 6a c3 bd bd 7e 8a 16 bf d9 8b 32 bf 85 25 04 bf
       -0.09265788 -0.5880507 -0.6974464 -0.5161975
000240 11 53 09 3f 2a 18 18 3f 6f 94 cf be fa e2 68 3f
       0.53642374 0.5941187 -0.40542933 0.9097134
000250 cd a6 96 3e e4 a9 61 3e 29 a5 07 bf bf e3 2c bf
       0.29424134 0.22037464 -0.5298639 -0.6753501
000260 0e c0 34 3f 62 8a 0c 3f f1 4b 6b be a1 bf 95 bd
       0.7060555 0.54898655 -0.22978188 -0.07311941
000270 ad c4 df 3e d5 5a 64 3e b7 05 a8 be 11 b6 c6 bd
       0.4370474 0.22300275 -0.3281686 -0.09702695
000280 56 53 dd 3e 2d 3f 8c bc 75 64 db 3d b5 09 9c be
       0.43227643 -0.017119968 0.1071252 -0.30476156
000290 13 e8 94 bd 3e bb 5b bf cd 0f 13 3e 40 92 08 3f
       -0.07270827 -0.85832584 0.14361496 0.5334816
0002a0 a2 ef 56 3f 05 8d a6 3d ee 4b 8d 3e 22 fa 24 3f
       0.839594 0.08132366 0.27596992 0.6444417
0002b0 f3 06 93 be 8f 34 26 3e ae cb 2b 3f ce b6 10 bf
       -0.2871624 0.16230987 0.67107666 -0.5652894
0002c0 3e 9e 84 3e e5 40 44 be f7 03 1d 3f d1 cb a0 3e
       0.2590198 -0.1916538 0.61334175 0.314055
0002d0 c2 69 66 3e 61 ed a5 bd 49 16 a7 3e e4 00 af 3e
       0.22501281 -0.08101917 0.3263419 0.34180367
0002e0 aa 0a 00 3f 76 6d 35 bf 4c f2 7a 3d 57 12 6c bf
       0.5001627 -0.7087015 0.06126623 -0.92215484
0002f0 6d 1c 22 bf 58 88 48 bd a2 ae 98 3e 22 c2 09 be
       -0.63324624 -0.048958153 0.29820734 -0.13452962
000300 88 a8 0d be e0 7a 35 bc 40 fc a9 3b 75 08 be 3c
       -0.13833821 -0.011076659 0.0051875412 0.023197392
000310 c9 91 d5 be 83 e3 56 3f e1 ae e3 3e 46 1b f4 be
       -0.41712788 0.83940905 0.4446936 -0.47677058
000320 bf 84 40 3f 87 ee 0a bf 57 c2 af be f6 58 a3 3e
       0.75202554 -0.54270214 -0.34327957 0.3190381
000330 35 c7 55 be e5 3e b6 3e 6d cd 28 bf 79 f2 c6 3e
       -0.20876773 0.3559486 -0.65938455 0.38856867
000340 6a f5 fa 3e 94 7c 0a bf 63 45 18 3f 89 64 8c be
       0.4901536 -0.5409634 0.59480876 -0.27420452
000350 d9 71 d5 be 39 4c 43 3e de c0 60 be f2 d9 5c bf
       -0.4168842 0.19072045 -0.21948573 -0.8627006
000360 c9 3f 8e be 91 b1 5d 3d 3c 56 2e 3f ef e0 d2 3e
       -0.2778304 0.05412442 0.68100333 0.41187236
000370 87 01 0d 3d 6e f0 09 be c9 e4 7d 3e e5 0c f2 bc
       0.034425285 -0.13470623 0.24794306 -0.029547164
000380 79 1e a9 3e 28 45 d9 be f4 65 60 bf 62 8a 2e 3e
       0.3303106 -0.42435575 -0.8765557 0.17044976
000390 fa 8d 11 3f ca 21 a8 bc f7 6e 82 3e 8a 7e cf be
       0.56857264 -0.020523924 0.25475284 -0.4052623
0003a0 c7 31 2b be c2 36 93 be b2 0c 75 3e f3 c1 24 bf
       -0.16718207 -0.28752714 0.23930624 -0.64358443
0003b0 11 5f 41 3f 0d 6b 8b 3e b3 e3 46 be 54 3a 26 bf
       0.75535685 0.2723011 -0.19422798 -0.6493275
0003c0 4b a5 fd 3d 4a 9b 95 be f6 06 29 bf 9d 1e 96 3e
       0.12385043 -0.2922004 -0.66026247 0.2932023
0003d0 f0 1b d6 be 7f 3f 84 bd 35 b5 3f bf d7 8e 0e 3d
       -0.4181819 -0.064574234 -0.74885875 0.03480419
0003e0 04 f8 82 be 89 81 21 3f 86 38 48 3e 23 d2 66 3e
       -0.25579846 0.6308828 0.19552812 0.22541098
0003f0 1e e1 5b bf 15 00 63 bd 36 18 e2 3d ef ee 33 be
       -0.85890377 -0.05542 0.11039774 -0.17571615

attention.in_proj_bias f4 [48]
000000 00 00 00 00 00 00 00 00 00 00 00 00 00 00 00 00
       0.0 0.0 0.0 0.0
000010 00 00 00 00 00 00 00 00 00 00 00 00 00 00 00 00
       0.0 0.0 0.0 0.0
000020 00 00 00 00 00 00 00 00 00 00 00 00 00 00 00 00
       0.0 0.0 0.0 0.0
000030 00 00 00 00 00 00 00 00 00 00 00 00 00 00 00 00
       0.0 0.0 0.0 0.0
000040 00 00 00 00 00 00 00 00 00 00 00 00 00 00 00 00
       0.0 0.0 0.0 0.0
000050 00 00 00 00 00 00 00 00 00 00 00 00 00 00 00 00
       0.0 0.0 0.0 0.0
000060 00 00 00 00 00 00 00 00 00 00 00 00 00 00 00 00
       0.0 0.0 0.0 0.0
000070 00 00 00 00 00 00 00 00 00 00 00 00 00 00 00 00
       0.0 0.0 0.0 0.0
000080 00 00 00 00 00 00 00 00 00 00 00 00 00 00 00 00
       0.0 0.0 0.0 0.0
000090 00 00 00 00 00 00 00 00 00 00 00 00 00 00 00 00
       0.0 0.0 0.0 0.0
0000a0 00 00 00 00 00 00 00 00 00 00 00 00 00 00 00 00
       0.0 0.0 0.0 0.0
0000b0 00 00 00 00 00 00 00 00 00 00 00 00 00 00 00 00
       0.0 0.0 0.0 0.0

attention.out_proj.weight f4 [16, 16]
000000 a8 d8 13 3f 68 96 f8 c0 23 ba 83 3f 9f 9f 96 c0
       0.57752466 -7.76836 1.029118 -4.706985
000010 0d 71 19 41 d3 1d c8 c0 c6 6e b8 bf 0e 7b a4 3f
       9.5901 -6.2536407 -1.4408805 1.2850053
000020 f1 57 9e bf 93 f8 d0 3e ce 97 21 3d 74 2d 37 c0
       -1.2370588 0.40814647 0.039451413 -2.8621492
000030 18 81 74 c1 d9 df 40 c1 7d 05 bc 3f 49 83 ca 40
       -15.281517 -12.05465 1.4689175 6.328526
000040 44 8c 07 c0 4e 64 24 3f 83 b2 b2 3f ec db 2a c1
       -2.1179361 0.6421555 1.3960727 -10.678692
000050 e9 44 9c 40 b8 1c 89 40 c2 bc bb bf 0b de 9d c0
       4.883412 4.2847557 -1.4666979 -4.933355
000060 41 7a 6e c1 f5 44 97 bf 8e f8 3c c1 f8 b2 ab bf
       -14.904847 -1.1817919 -11.810682 -1.3413992
000070 90 ce a1 3f 5e 77 e8 3f 3d 3b 21 3f 29 83 14 c1
       1.2641163 1.8161428 0.62981015 -9.2820215
000080 28 cd 59 c0 39 b9 3c 41 c1 36 09 c1 92 0c 23 c0
       -3.4031467 11.79522 -8.575868 -2.5476422
000090 b8 e3 73 40 2c 77 0a c1 4a c3 b6 c0 41 90 9a bf
       3.8107738 -8.654095 -5.711339 -1.2075273
0000a0 2c 1f be 3f 58 13 bc bf 5d 21 95 c0 ed b9 2f 41
       1.4853263 -1.4693403 -4.6603227 10.982892
0000b0 9e 77 c7 bf 90 16 5a 40 51 3b 5a c0 5d d4 21 41
       -1.5583379 3.407627 -3.4098704 10.1143465
0000c0 07 75 e8 c0 9f 44 30 c1 c2 fe c6 40 3a 23 31 40
       -7.2642856 -11.016753 6.2185984 2.767775
0000d0 24 ae c8 c0 c6 d2 22 c1 72 46 94 c0 27 68 01 c0
       -6.2712574 -10.176458 -4.6335993 -2.021982
0000e0 15 bb e9 3f d9 d1 84 c0 0d ed db c0 38 58 73 40
       1.8260218 -4.150616 -6.872687 3.8022594
0000f0 2b a1 0c 41 94 04 53 c0 7c 11 14 3f 49 d6 f7 3f
       8.789348 -3.2971544 0.5783918 1.936227
000100 44 46 37 c1 02 66 58 c0 04 ea 83 3f 7d 1d da 40
       -11.454655 -3.381226 1.0305791 6.8160996
000110 93 21 5d 40 0f e9 3d 41 58 23 7a bf 50 93 40 40
       3.4551742 11.869399 -0.9771018 3.0089912
000120 2e ff de bf 53 9c 48 c0 98 70 88 be 03 0e 81 40
       -1.7421625 -3.1345413 -0.26648402 4.0329604
000130 1a 9b 8e c0 f3 d0 0f 3f dc bd 2a c1 ca 9d 3d 40
       -4.4564333 0.56178206 -10.671352 2.9627557
000140 1a 05 c1 bf 35 f1 8b 3d 97 5f 0d 41 b4 83 b7 3f
       -1.5079682 0.06833116 8.835837 1.4337068
000150 91 1e 14 41 01 72 0f bd 15 04 80 c0 c3 08 65 c0
       9.2574625 -0.035020832 -4.0004983 -3.5786598
000160 c9 a0 40 41 8d d2 75 41 39 f8 8b c0 91 ba b3 bf
       12.039254 15.363904 -4.3740506 -1.404131
000170 29 82 99 bf eb 12 fa 40 d8 70 e7 3e c8 6e 5b c0
       -1.1992847 7.8148093 0.4520328 -3.4286366
000180 ca 7e b2 40 83 2f b9 3e 3b e3 09 bf 90 23 22 41
       5.577977 0.3616906 -0.5386235 10.133682
000190 f4 12 05 c0 f6 8c 0a 40 3f 14 8d bf ef 67 53 c0
       -2.0792818 2.1648536 -1.1021804 -3.3032186
0001a0 72 fe 70 c0 80 c4 cc 40 4b 5a 1b c0 66 7b 8c 41
       -3.76553 6.398987 -2.427386 17.560253
0001b0 a0 dc 72 c0 c9 81 08 c1 06 a9 5d 40 f3 08 16 c1
       -3.794716 -8.531686 3.4634414 -9.377185
0001c0 da b8 52 c0 fb d5 b9 bf 6d c4 eb 3f a2 9e 4f c0
       -3.2925324 -1.4518427 1.8419319 -3.2440572
0001d0 a8 1a 52 c0 d4 aa 31 c0 1b 10 67 c1 07 3b 61 bf
       -3.282877 -2.7760515 -14.441432 -0.87980694
0001e0 a6 a5 09 c1 2d d9 95 40 50 07 43 41 46 63 dd 3f
       -8.6029415 4.6827607 12.189285 1.7295921
0001f0 15 bf d7 bf a4 0c 91 40 c7 a2 fe be 3d d8 8f c0
       -1.6855189 4.532793 -0.49733564 -4.4951463
000200 d9 9d 1d c1 99 2a ee 3f 8e f0 09 c1 64 f5 bb c0
       -9.851037 1.860675 -8.621229 -5.873705
000210 0c 6c 99 c0 ab 11 e0 40 f9 e9 55 c0 1b 95 59 c0
       -4.7944393 7.0021567 -3.3424056 -3.3997257
000220 22 6a 0c 41 67 82 87 40 51 07 c4 3e ed a3 e7 bf
       8.775911 4.2346683 0.38286832 -1.8096901
000230 56 4e 8a 3f 15 8d 1c c1 1f a2 04 41 f1 8a d0 bf
       1.0805156 -9.784444 8.28958 -1.6292402
000240 8d e7 ab bf 73 75 02 c1 db c5 90 bf 87 63 dc c0
       -1.3430039 -8.153674 -1.1310381 -6.8871493
000250 9e 87 a6 40 9a d5 2e 40 9d ed f5 40 cf 7a 8e 40
       5.204055 2.7317872 7.6852555 4.4524913
000260 fb fe f8 bf c8 ab 77 40 b5 c7 84 40 bd e7 53 41
       -1.9452814 3.8698597 4.1493783 13.244077
000270 50 e2 a2 40 d9 1d d6 40 15 00 f1 40 d8 f9 db 40
       5.090126 6.6911435 7.53126 6.8742485
000280 20 36 cb 40 bb d3 2b c0 c1 a2 88 bc fd 53 01 c1
       6.350357 -2.684798 -0.01667917 -8.083005
000290 25 04 33 c1 d6 dd 7a 40 da 1d 00 c0 0b 94 82 40
       -11.188512 3.9197898 -2.001822 4.0805717
0002a0 e2 9f 94 3d 6a 3e 3e 41 54 f8 99 c0 4e 80 99 3f
       0.07257058 11.890238 -4.8115635 1.199228
0002b0 ed 5a b2 bd ce 78 47 c0 40 db 18 c1 e1 5a 07 41
       -0.08708749 -3.1167483 -9.553528 8.459687
0002c0 a0 30 b3 be 42 96 ab 3f 08 88 40 40 40 0a b7 40
       -0.34998035 1.340523 3.0083027 5.720001
0002d0 16 61 e7 c0 f7 b6 77 40 aa 7d 83 c0 a2 1e 6b 40
       -7.2306013 3.8705423 -4.10909 3.6737447
0002e0 b8 13 86 c0 fa 7e 78 bf 01 de c4 c0 2b cf 71 c0
       -4.189907 -0.9706875 -6.1521 -3.7782695
0002f0 3c ad 0f c1 4c 83 0c 41 2f 47 3d 41 7d db 25 41
       -8.979794 8.782055 11.829879 10.366086
000300 e8 a7 64 3f 7d e4 e7 40 0a b4 06 41 97 93 2e 40
       0.89318705 7.2466416 8.418955 2.7277582
000310 a5 44 d1 40 17 67 4c 40 6d ca 7a c0 44 57 01 40
       6.5396295 3.193792 -3.918605 2.0209513
000320 7b 7b d1 c0 af 53 42 40 3d 60 ce 3f 2f d4 17 c0
       -6.5463233 3.0363576 1.612312 -2.3723257
000330 d7 d2 3a 41 31 df 25 c1 bf 86 33 40 61 35 41 41
       11.676475 -10.36699 2.8050992 12.075532
000340 99 de ad c0 7e ef fd 40 f9 e5 56 41 45 03 ad c0
       -5.4334226 7.935485 13.431146 -5.406649
000350 68 ce dc c0 de 0a 05 c0 b5 4a 18 41 fc 43 de c0
       -6.900196 -2.0787883 9.518239 -6.945799
000360 5c 49 b5 be 08 54 0b bf cc cf 4d 40 a9 ba 96 40
       -0.3540753 -0.54425097 3.215808 4.7102857
000370 e2 6d c2 c0 12 c3 b2 bf 48 d6 54 bf cf 93 f8 3f
       -6.0759134 -1.3965781 -0.8313947 1.9420108
000380 84 3f fc c0 88 34 f5 3e 98 b1 dc c0 9a 24 cc 40
       -7.8827534 0.4789164 -6.896679 6.379468
000390 04 08 a8 bf 52 fb ee c0 00 1f 14 41 1f 74 ae 3f
       -1.3127446 -7.4681787 9.257568 1.3629187
0003a0 c0 0c 10 c1 b1 68 61 41 5a 78 21 bf a1 89 d8 c0
       -9.003113 14.088059 -0.63074267 -6.7668004
0003b0 66 bf 2c 3f 4f 16 0a be 73 1a 0a bf a1 d1 59 3d
       0.6747955 -0.13485073 -0.5394661 0.053178433
0003c0 a9 e3 6a c0 f1 f9 aa 40 80 08 91 40 53 78 31 c0
       -3.6701453 5.3430104 4.5322876 -2.772969
0003d0 6c 9d 42 bf b4 98 4a c0 99 28 97 be 72 65 a2 41
       -0.76021457 -3.1655703 -0.2952316 20.299534
0003e0 e2 b7 14 40 09 37 18 bf 34 93 09 c0 d1 4d 30 40
       2.3237233 -0.59458977 -2.1496096 2.7547495
0003f0 6f 2a 71 bf f7 09 1f c0 01 d7 af 3f f7 24 2f c1
       -0.94205374 -2.4849832 1.3737489 -10.946525

attention.out_proj.bias f4 [16]
000000 5c 15 3b bd e4 88 90 bc 58 ae 31 bd 12 69 6f bc
       -0.045674667 -0.0176434 -0.043379158 -0.014612453
000010 e4 d5 b0 bc 5a 24 aa 3d d6 1b 35 3d 73 7a b5 3c
       -0.021586366 0.08307715 0.044216 0.022153115
000020 10 0d 52 3a 71 27 d0 3c 3a 81 47 bd 6e 5a 8d 3d
       0.0008012811 0.025409432 -0.048707224 0.06902014
000030 6e 08 b5 bd 0c 41 80 bc 40 fd de 3c e7 6f 1e bd
       -0.088394985 -0.015656017 0.027220368 -0.038680937
