results/attention_layer/checkpoints/attention_layer_results_method_Adam+Newton_lr_0.01_variant_None_L_1.0_reg_0.01.pth (torch, 8712 bytes, 4 tensors)

attention.in_proj_weight f4 [48, 16]
-267859.9 -170324.97 -34796.473 44695.105 52769.008 103420.12 -39660.246 -67420.85
224972.16 174119.3 -156010.97 186225.34 -28697.23 -136599.97 215113.31 -191235.7
-45540.758 101220.24 51688.25 -137641.28 93936.086 75737.234 100771.58 70014.39
49235.2 -77663.65 68988.87 64380.863 -59380.977 14161.094 14414.968 46973.285
131967.22 -79570.055 -56787.164 166569.33 -132321.42 -123586.12 -114715.98 -74228.09
-119536.86 47488.945 -47107.555 -138646.53 84649.89 17367.16 -78558.055 -6180.982
-328442.12 -213330.72 -45619.297 56297.32 57079.414 121451.65 -50650.2 -88653.516
273835.25 223376.42 -193059.58 226648.72 -29088.133 -171923.95 265278.88 -235676.83
102701.97 -129200.1 -75842.97 208695.62 -149747.84 -126816.2 -144857.31 -105465.69
-94030.01 95196.19 -88496.164 -130232.78 99617.33 -11331.996 -49054.605 -46524.33
-52119.023 74963.41 43459.273 -111721.62 86543.82 72810.82 78268.414 62946.176
51158.758 -62519.05 50128.086 68840.51 -57888.043 11050.576 22624.857 27112.914
-94903.08 -3310.4966 14329.02 -40771.184 63020.168 68896.56 28180.846 17895.602
88266.94 4405.599 -15792.491 81436.88 -39735.754 -27569.678 65455.508 -36404.457
8497.019 197638.52 89422.586 -221144.0 128031.45 85640.35 156897.05 133403.8
3241.2656 -168537.62 150259.55 51785.98 -87078.766 67335.84 -39851.844 122756.73
-195534.58 -365212.75 -134366.12 309373.56 -119544.73 -31609.389 -227698.36 -206904.56
150838.56 325020.16 -295456.03 67750.78 84250.35 -173912.77 197784.73 -287605.5
76202.07 124480.7 45430.344 -106611.72 33139.855 3343.0044 73388.28 73100.32
-64971.984 -109156.84 105870.84 -25985.08 -25766.785 64321.496 -73543.57 101972.97
179448.22 181514.08 56058.59 -93531.56 23012.166 -27798.732 75511.26 98402.914
-140039.8 -192270.36 149612.08 -105085.07 -22081.95 121199.18 -158263.2 164208.67
-260903.88 -54193.305 16487.955 -81865.21 124753.555 153370.23 49576.074 9508.986
227648.02 76191.84 -68096.34 213453.08 -75576.37 -99278.64 190849.98 -119563.44
243347.08 23726.885 -26752.51 108641.38 -132279.94 -151714.16 -72124.82 -22058.912
-213330.03 -52165.246 43776.12 -204160.94 80697.1 86139.125 -173527.36 93317.94
-91288.03 -51086.22 -9340.609 -3128.0334 14209.055 31851.656 -4691.6978 -21242.543
71138.914 65794.766 -42908.086 67615.66 -6664.148 -48373.125 73932.89 -57827.99
112354.75 -32956.324 -34028.56 103085.75 -92979.664 -90978.03 -68675.375 -44438.35
-97754.86 15286.073 -14774.962 -111240.98 61360.453 21449.387 -72210.15 16234.816
110469.26 62214.32 9787.813 -14862.156 -32597.346 -51291.832 13176.339 18293.326
-96099.4 -56984.816 60403.156 -79778.3 19963.664 50309.184 -86349.93 76324.09
00000000: 7dca 82c8 3e55 26c8 79ec 07c7 1b97 2e47
00000010: 0221 4e47 0ffe c947 3fec 1ac7 6dae 83c7
00000020: 0ab3 5b48 d309 2a48 be5a 18c8 56dc 3548
00000030: 7632 e0c6 fe65 05c8 5412 5248 edc0 3ac8
00000040: c2e4 31c7 1fb2 c547 40e8 4947 526a 06c8
00000050: 0b78 b747 9eec 9347 cad1 c447 32bf 8847
00000060: 3353 4047 d3af 97c7 6fbe 8647 dd7c 7b47
00000070: faf4 67c7 6044 5d46 df3b 6146 497d 3747
00000080: cedf 0048 0769 9bc7 2ad3 5dc7 55aa 2248
00000090: 5b38 01c8 0f61 f1c7 fd0d e0c7 0cfa 90c7
000000a0: 6e78 e9c7 f280 3947 8e03 38c7 a265 07c8
000000b0: f254 a547 52ae 8746 076f 99c7 db27 c1c5
000000c0: 445f a0c8 ae54 50c8 4c33 32c7 52e9 5b47
000000d0: 6af7 5e47 d335 ed47 33da 45c7 c226 adc7
000000e0: 68b5 8548 1b24 5a48 e588 3cc8 2e56 5d48
000000f0: 4440 e3c6 fde4 27c8 dc87 8148 3527 66c8
00000100: fc96 c847 0d58 fcc7 7c21 94c7 e8cd 4b48
00000110: f63c 12c8 1ab0 f7c7 5476 0dc8 d8fc cdc7
00000120: 01a7 b7c7 18ee b947 15d8 acc7 645c fec7
00000130: aa90 c247 fc0f 31c6 9b9e 3fc7 54bc 35c7
00000140: 0697 4bc7 b469 9247 46c3 2947 cf34 dac7
00000150: e907 a947 6935 8e47 35de 9847 2de2 7547
00000160: c2d6 4747 0d37 74c7 16d0 4347 4174 8647
00000170: 0b20 62c7 4eaa 2c46 b7c1 b046 d4d1 d346
00000180: 8a5b b9c7 f2e7 4ec5 14e4 5f46 2f43 1fc7
00000190: 2b2c 7647 4890 8647 b129 dc46 34cf 8b46
000001a0: 7865 ac47 cbac 8945 f7c1 76c6 710e 9f47
000001b0: c137 1bc7 5b63 d7c6 82af 7f47 7534 0ec7
000001c0: 13c4 0446 a101 4148 4ba7 ae47 00f6 57c8
000001d0: ba0f fa47 2d44 a747 4338 1948 f346 0248
000001e0: 4094 4a45 6896 24c8 e3bc 1248 fb49 4a47
000001f0: 6213 aac7 ec83 8347 d8ab 1bc7 5dc2 ef47
00000200: a5f3 3ec8 9853 b2c8 8837 03c8 b20f 9748
00000210: 5d7c e9c7 c7f2 f6c6 975c 5ec8 240e 4ac8
00000220: a44d 1348 85b3 9e48 0144 90c8 6453 8447
00000230: 2d8d a447 31d6 29c8 2f26 4148 b06e 8cc8
00000240: 09d5 9447 5a20 f347 5876 3147 dc39 d0c7
00000250: db73 0147 12f0 5045 2456 8f47 29c6 8e47
00000260: fccb 7dc7 6c32 d5c7 6cc7 ce47 2902 cbc6
00000270: 924d c9c6 7f41 7b47 c9a3 8fc7 7c2a c747
00000280: 0e3e 2f48 8542 3148 97fa 5a47 c8ad b6c7
00000290: 55c8 b346 772d d9c6 a17b 9347 7531 c047
000002a0: f3c1 08c8 97c3 3bc8 051b 1248 893e cdc7
000002b0: e683 acc6 97b7 ec47 cd8d 1ac8 2b5c 2048
000002c0: f8c9 7ec8 4eb1 53c7 e9cf 8046 9be4 9fc7
000002d0: c7a8 f347 8fc6 1548 13a8 4147 f293 1446
000002e0: 0150 5e48 eccf 9447 2c00 85c7 4573 5048
000002f0: 2f9c 93c7 52e7 c1c7 7f60 3a48 b885 e9c7
00000300: c5a4 6d48 c55d b946 0501 d1c6 b130 d447
00000310: fc2d 01c8 8a28 14c8 69de 8cc7 d355 acc6
00000320: 8254 50c8 3fc5 4bc7 1f00 2b47 3c60 47c8
00000330: 8d9c 9d47 903d a847 d775 29c8 f842 b647
00000340: 044c b2c7 388e 47c7 70f2 11c6 8980 43c5
00000350: 3804 5e46 50d7 f846 959d 92c5 16f5 a5c6
00000360: 75f1 8a47 6281 8047 169c 27c7 d40f 8447
00000370: 2f41 d0c5 20f5 3cc7 7266 9047 fde3 61c7
00000380: 6071 db47 53bc 00c7 8fec 04c7 e056 c947
00000390: d599 b5c7 04b1 b1c7 b021 86c7 5a96 2dc7
000003a0: 6eed bec7 4bd8 6e46 d9db 66c6 7d44 d9c7
000003b0: 74b0 6f47 c692 a746 1309 8dc7 44ab 7d46
000003c0: a1c2 d747 5206 7347 41ef 1846 a038 68c6
000003d0: b1aa fec6 d55b 48c7 5be1 4d46 a7ea 8e46
000003e0: b3b1 bbc7 d198 5ec7 28f3 6b47 26d1 9bc7
000003f0: 54f7 9b46 2f85 4447 f7a6 a8c7 0c12 9547

attention.in_proj_bias f4 [48]
0.0 0.0 0.0 0.0 0.0 0.0 0.0 0.0
0.0 0.0 0.0 0.0 0.0 0.0 0.0 0.0
0.0 0.0 0.0 0.0 0.0 0.0 0.0 0.0
0.0 0.0 0.0 0.0 0.0 0.0 0.0 0.0
0.0 0.0 0.0 0.0 0.0 0.0 0.0 0.0
0.0 0.0 0.0 0.0 0.0 0.0 0.0 0.0
00000000: 0000 0000 0000 0000 0000 0000 0000 0000
00000010: 0000 0000 0000 0000 0000 0000 0000 0000
00000020: 0000 0000 0000 0000 0000 0000 0000 0000
00000030: 0000 0000 0000 0000 0000 0000 0000 0000
00000040: 0000 0000 0000 0000 0000 0000 0000 0000
00000050: 0000 0000 0000 0000 0000 0000 0000 0000
00000060: 0000 0000 0000 0000 0000 0000 0000 0000
00000070: 0000 0000 0000 0000 0000 0000 0000 0000
00000080: 0000 0000 0000 0000 0000 0000 0000 0000
00000090: 0000 0000 0000 0000 0000 0000 0000 0000
000000a0: 0000 0000 0000 0000 0000 0000 0000 0000
000000b0: 0000 0000 0000 0000 0000 0000 0000 0000

attention.out_proj.weight f4 [16, 16]
0.0843348 -0.0077038766 -0.10119635 0.029812153 0.05190511 0.046782702 -0.22456786 0.13334309
-0.061602317 -0.08311051 0.06842569 0.0191294 0.2756323 -0.11107549 0.22989506 0.013460768
-0.11429793 -0.2364676 0.093217425 0.17756686 -0.17819552 0.11871738 -0.02317946 -0.09207114
0.022597948 0.13522908 0.24413761 -0.002324058 0.20348619 0.09011838 0.30245408 0.034432925
-0.18935965 -0.105211645 0.1351775 0.19122544 0.16413304 -0.26934284 0.07084953 -0.037592035
-0.005384375 0.101626895 -0.37376204 -0.14035633 -0.016901266 -0.092647955 -0.109150425 -0.12783702
0.1339824 0.21572025 0.12546588 0.050329056 -0.06819294 0.053317286 -0.19240808 0.051460996
0.03555769 0.32026884 -0.044582803 -0.106847376 0.15355782 0.06839121 0.2141551 0.013854843
0.09250601 0.05615462 -0.04309381 -0.15526186 0.06295273 -0.010880223 0.16515058 -0.032038804
0.027074615 -0.050816868 -0.2222531 0.22349836 -0.4150645 0.15813716 -0.28609663 -0.071476914
0.055495933 -0.260248 -0.095700584 -0.17554322 -0.032232676 0.16397847 0.17161848 -0.26624954
0.12742485 -0.2557698 -0.2485362 -0.23866995 0.09169446 0.15952767 -0.04023519 -0.27845237
-0.16915047 -0.18767364 0.113933265 -0.062631965 0.12201381 -0.18424273 -0.032913394 -0.21522328
-0.07265001 0.1450771 0.17209987 -0.19112158 -0.083783746 -0.077959105 0.06911987 0.04187641
0.2134666 -0.09337995 -0.08248465 -0.09667299 -0.05312827 0.085786946 -0.42400792 -0.2841486
0.0026327625 0.07590437 0.06524477 -0.09499678 0.09843061 0.14357784 -0.19956422 0.25603983
0.06051785 -0.061817642 -0.07193147 -0.065448985 -0.0019288469 0.38816488 0.14220294 0.23771966
0.18504427 -0.023287304 -0.35957217 0.08982136 0.029958893 0.10851869 -0.17986657 -0.35294557
-0.09431643 0.08278864 0.15810919 0.181606 -0.042754345 -0.121540815 -0.0037550302 0.14049803
-0.042800505 0.0979941 0.14134601 -0.2389368 0.42213908 -0.16741318 0.0025637136 -0.08208873
-0.047010586 0.31367594 -0.062710986 -0.1962183 -0.34568885 0.34426528 0.19696964 0.085873
0.1247603 -0.1014938 -0.099145785 0.21862599 -0.0060892925 0.048852723 0.049636863 0.35986423
0.020696392 0.1326023 0.08699738 -0.23620838 0.20098762 0.07481946 0.006337568 0.2490278
-0.015482181 -0.09673057 -0.25550303 0.14314407 -0.1468967 0.202869 -0.20609492 -0.027397977
-0.0880484 -0.37806252 -0.1903316 -0.21702798 0.16901769 0.0877878 0.13494752 -0.19680361
0.05391261 -0.20933874 -0.20991386 -0.024854796 -0.21570422 -0.050191123 -0.09594344 -0.20328553
-0.14406893 -0.039251592 -0.2255196 -0.03303479 -0.34236982 -0.021090498 0.16705826 -0.054050293
0.069629185 -0.19234382 0.018977042 0.15376054 -0.06456824 -0.12508732 0.15776978 -0.3046938
0.038177926 0.11396708 0.05939042 -0.20463897 0.12542287 0.040872544 -0.1281277 0.260969
-0.058873616 -0.06988011 -0.23326623 0.27555403 -0.05204108 0.21920295 -0.0048143067 -0.047849998
-0.2660827 -0.08197112 0.1960005 0.16008413 -0.061142888 -0.16381627 0.06938207 -0.07043898
-0.051262937 0.12673344 0.35772693 -0.27817398 0.20855531 -0.16324632 0.017912515 0.09787248
00000000: b9b7 ac3d cd70 fcbb 0840 cfbd 9e38 f43c
00000010: 749a 543d 389f 3f3d 1ef5 65be 178b 083e
00000020: b652 7cbd d835 aabd c522 8c3d 42b5 9c3c
00000030: ad1f 8d3e 8c7b e3bd 9c69 6b3e 8e8a 5c3c
00000040: 0815 eabd 9024 72be c7e8 be3d 16d4 353e
00000050: e378 36be 1922 f33d dae2 bdbc cb8f bcbd
00000060: 551f b93c 7e79 0a3e 36ff 793e 394f 18bb
00000070: af5e 503e fc8f b83d 43db 9a3e 8a09 0d3d
00000080: 7fe7 41be 3479 d7bd f86b 0a3e 9ad0 433e
00000090: 7e12 283e 4ee7 89be 8f19 913d 1bfa 19bd
000000a0: 696f b0bb c321 d03d bd5d bfbe 92b9 0fbe
000000b0: 8674 8abc 36be bdbd 428a dfbd b5e7 02be
000000c0: af32 093e c5e5 5c3e 217a 003e d725 4e3d
000000d0: bda8 8bbd 3a63 5a3d a006 45be c4c8 523d
000000e0: f1a4 113d 47fa a33e 759c 36bd ccd2 dabd
000000f0: 433e 1d3e b110 8c3d 794b 5b3e 6cff 623c
00000100: ca73 bd3d 6302 663d 2383 30bd f7fc 1ebe
00000110: 5ced 803d f642 32bc 3c1d 293e 1f3b 03bd
00000120: 95cb dd3c 5925 50bd 5196 63be c1dc 643e
00000130: 5683 d4be b5ee 213e 427b 92be 7d62 92bd
00000140: b44f 633d 3a3f 85be abfe c3bd 9ac1 33be
00000150: 6906 04bd f9e9 273e c1bc 2f3e dc51 88be
00000160: a97b 023e 42f4 82be 4680 7ebe e565 74be
00000170: 4eca bb3d 395b 233e a8cd 24bd 4f91 8ebe
00000180: c835 2dbe 852d 40be d855 e93d 3045 80bd
00000190: 60e2 f93d 20aa 3cbe 32d0 06bd 7e63 5cbe
000001a0: 87c9 94bd 178f 143e f33a 303e 60b5 43be
000001b0: d096 abbd 06a9 9fbd b88e 8d3d 9986 2b3d
000001c0: fd96 5a3e fd3d bfbd b6ed a8bd 7dfc c5bd
000001d0: 079d 59bd 11b1 af3d 9117 d9be ed7b 91be
000001e0: 6d8a 2c3b c073 9b3d 0d9f 853d ac8d c2bd
000001f0: fd95 c93d 1206 133e 905a 4cbe a717 833e
00000200: 91e1 773d 7f34 7dbd ce50 93bd 1e0a 86bd
00000210: 5dd1 fcba 8cbd c63e a69d 113e c86c 733e
00000220: 3f7c 3d3e 04c5 bebc d819 b8be 43f4 b73d
00000230: 5a6c f53c 0c3f de3d f12e 38be 48b5 b4be
00000240: f928 c1bd 178d a93d 60e7 213e ecf6 393e
00000250: 2e1f 2fbd 64ea f8bd f416 76bb b7de 0f3e
00000260: 954f 2fbd 21b1 c83d 02bd 103e d9ab 74be
00000270: 9d22 d83e 5c6e 2bbe fa03 283b 231e a8bd
00000280: 2c8e 40bd 229a a03e 9e6e 80bd 73ed 48be
00000290: 21fe b0be 8a43 b03e 69b2 493e 2fde af3d
000002a0: 5482 ff3d fbdb cfbd f20c cbbd 7edf 5f3e
000002b0: b088 c7bb cb19 483d 0650 4b3d 2040 b83e
000002c0: 7b8b a93c e6c8 073e af2b b23d 9ce0 71be
000002d0: b3cf 4d3e f23a 993d 60ab cf3b 2501 7f3e
000002e0: f9a8 7dbc ad1a c6bd 4bd1 82be 5c94 123e
000002f0: 176c 16be e4bc 4f3e 8c0a 53be b971 e0bc
00000300: b852 b4bd 6991 c1be 49e6 42be 953c 5ebe
00000310: f912 2d3e 17ca b33d af2f 0a3e e386 49be
00000320: 78d3 5c3d e55c 56be a9f3 56be 499c cbbc
00000330: 91e1 5cbe 3595 4dbd ff7d c4bd 152a 50be
00000340: ce86 13be 47c6 20bd 9cee 66be 7d4f 07bd
00000350: 194b afbe fbc5 acbc 5211 2b3e d763 5dbd
00000360: bf99 8e3d c7f5 44be be75 9b3c 6773 1d3e
00000370: 5a3c 84bd e416 00be 678e 213e d300 9cbe
00000380: 7560 1c3d 9367 e93d 5e43 733d e18c 51be
00000390: da6e 003e f869 273d e833 03be bb9d 853e
000003a0: 7625 71bd 4e1d 8fbd 58dd 6ebe 6b15 8d3e
000003b0: 0729 55bd bd76 603e 55c1 9dbb 5cfe 43bd
000003c0: fe3b 88be 79e0 a7bd 5bb4 483e 18ed 233e
000003d0: f770 7abd 74bf 27be 3018 8e3d 5042 90bd
000003e0: 16f9 51bd 69c6 013e fc27 b73e d26c 8ebe
000003f0: 868f 553e 0b2a 27be 44bd 923c 5e71 c83d

attention.out_proj.bias f4 [16]
0.13323116 0.12919691 0.21707807 -0.013779259 -0.12822618 0.102949604 0.426596 -0.025901975
-0.06437931 0.05344104 0.16317385 0.07716727 -0.36027834 0.17341916 -0.29464063 -0.38509834
00000000: c06d 083e 324c 043e b749 5e3e 67c2 61bc
00000010: b94d 03be 3ed7 d23d ca6a da3e 6130 d4bc
00000020: 4dd9 83bd fee4 5a3d 0c17 273e e009 9e3d
00000030: 6776 b8be cb94 313e 23db 96be 9c2b c5be
