results/attention_layer/checkpoints/attention_layer_results_method_Adam+GradReg_lr_0.1_variant_GradReg_L_1.0_reg_0.01.pth (torch, 8736 bytes, 4 tensors)

attention.in_proj_weight f4 [48, 16]
00000000: fb7c 89be 1b03 8f3e 802f 09bf ba78 04bf
00000010: 4c76 5b3f f431 12bf 3d4f f1be 4461 38bf
00000020: 13c8 513f dc77 413e cb11 c33d 1fda 1b3d
00000030: 7a61 01be 2c5e 32bf f5d3 06bf 551b d63e
00000040: f120 41bf 15a8 9abe b4f2 b2bd 029f e93e
00000050: 3bb7 33bf 6fb7 813d ace3 5dbc 25c7 c33e
00000060: 4d71 cb3d e67f ff3d 9b89 3abe ac60 9e3e
00000070: e827 96be 87c3 55bf 7def 43bf 80ac 9abf
00000080: f62a ffbe 4a5e 18bf 14fc d23e e688 6cbe
00000090: 2d89 4dbd 4e2e 95be aaaa 0e3f aa52 42be
000000a0: 8369 e03e bb86 973f 78f8 d1be 172f 1abf
000000b0: 95d5 e23e 6823 c43e f53a b9bd 4b89 68be
000000c0: e28d 383f 2a47 82be 4c16 ebbd e814 e33d
000000d0: 82d9 6d3e 0615 8c3f 2e22 51bf 08d3 503f
000000e0: 8ae8 a13e 7d02 37bd c1ac 31bf c192 ccbe
000000f0: 055a 023f ccc2 41bf 2d87 943e a6fd 32bf
00000100: 5c1a 5a3e 9913 91be a9a8 963e 0c05 eb3e
00000110: 2b4e e6be 6950 38bf e9d4 4bbf 1688 8bbe
00000120: 7bd9 2c3f 72de 16bf 3ac4 f4bd e916 c8be
00000130: d267 3b3f e523 cebe 1890 9abe cf3d f93e
00000140: 7bb1 c5be ab2f 3d3f 8f74 5c3f b130 87be
00000150: 8fa8 f43e cfd5 b1be 3291 69bf bb0d adbe
00000160: 6cfd 72be 3b6a 5c3e 0a37 293f ad3e bfbd
00000170: 3ba7 2e3f cdbf 5dbe 411c febc 29cd 48bd
00000180: f43c 09bf ae16 45be 44af 13be 0a58 253e
00000190: 08fb 8b3e 576c 13bf a134 ecbe 7474 94be
000001a0: aadf 8e3e f582 94bf 003c 953e e065 f1be
000001b0: c38d 013e 81e4 253e a16b fe3e 7dfa c7be
000001c0: 487c f3bd fccb 533e e59f 07bd 7dd4 1d3e
000001d0: 41ea 5bbe 1d97 3ebe cdad 1b3f 5255 d83e
000001e0: 87b4 ab3e a2ad ffbd fc1c 3d3e 1a20 a53e
000001f0: a55b 603f d215 32be 9464 c93e 43e2 883d
00000200: 0ed7 453f ea9a f0be c0b6 cf3d 2920 4abe
00000210: 58de 873f 168e 25bf 4cb2 a83e ce4a e3be
00000220: aa86 bbbe 4745 8abd 1a83 b7be 5285 dd3e
00000230: 0d73 48be da1b 27bf 56a1 42bf 1280 0cbf
00000240: bb6d 163f 0e6c 303f b30e 98be 37ea 7e3f
00000250: 6d17 bd3e bedc 993e be84 14bf 50b2 35bf
00000260: 4d46 543f 392e 053f b35a 0dbe ab56 f6bd
00000270: 0729 b23e 5b76 a13e 6654 bdbe 8296 42be
00000280: c264 173f 0e64 5dbc be68 163e fce5 acbe
00000290: 301f 41bd a2f9 64bf 3bde 783e 8334 073f
000002a0: 9c47 7c3f ca13 053e c176 f03e f661 1b3f
000002b0: c94c aebe 9c81 343e e50e 1b3f ccee 24bf
000002c0: 54d9 513e b587 07be e46c 233f e94e a93e
000002d0: a915 6b3e ebfe 38bc b780 a93e 9efc b33e
000002e0: 57bf 0e3f f39b 2fbf 68fa 823d 92f4 89bf
000002f0: 73c8 4fbf eafb 83bd 680e 973e 9388 ddbd
00000300: 01a4 08be 0596 f33c f4b5 683d 7cda 41bd
00000310: 3576 ffbe 24b4 663f 86a5 f83e acfa e4be
00000320: d137 4e3f d927 0abf afa5 a8be 0574 d03e
00000330: 3371 0fbe d901 aa3e b83e 59bf 53f3 943e
00000340: 64c8 0c3f 242d 16bf 897c 2c3f 6d0a bfbe
00000350: 71e9 1bbf 43e6 593e 4f07 7bbe b0a4 6abf
00000360: f0b7 a9be 31f2 d93d 8671 373f 1d28 dc3e
00000370: 8516 f43d 6a93 1abe 5f39 8a3e a828 a9bd
00000380: 6e90 943e be50 debe 6a30 72bf fca2 873e
00000390: d09b 293f 571c 29bb e7f3 ad3e 100b dbbe
000003a0: 9237 55be db37 afbe 647c a23e 3c1b 22bf
000003b0: 255c 4d3f 9500 b33e 9ac3 55be 6294 35bf
000003c0: cd10 413e 5b46 dcbe cc65 2dbf 2589 e23e
000003d0: ebd6 ebbe fb50 0bbe 069e 43bf e5b8 7f3d
000003e0: 8881 94be f681 393f b414 633e e5dd 4f3e
000003f0: 011e 73bf 6f0d e6bd d244 d73d 14f5 b0bd
-0.26853165 0.27932057 -0.53588104 -0.51746714 0.8572738 -0.5710747 -0.47130767 -0.72023416
0.81945914 0.18893379 0.09524878 0.038049813 -0.1263484 -0.69674945 -0.5266717 0.41817728
-0.7544089 -0.3020636 -0.08737698 0.45629126 -0.7020146 0.06333815 -0.013543051 0.38237873
0.0993372 0.124755666 -0.18216555 0.3093313 -0.2932732 -0.83501476 -0.76537305 -1.2083893
-0.49837464 -0.59518874 0.41207945 -0.23099098 -0.05017965 -0.2913689 0.5572916 -0.18976846
0.438305 1.1837991 -0.4100988 -0.60228103 0.44303575 0.38308263 -0.09044448 -0.22708623
0.72091496 -0.2544492 -0.11478862 0.11087972 0.23227504 1.0943916 -0.8169278 0.8157201
0.31622726 -0.044680107 -0.69404227 -0.39955714 0.5091861 -0.7568786 0.2900938 -0.69918287
0.21299118 -0.28335264 0.29425552 0.45902288 -0.44981512 -0.71997696 -0.7962175 -0.27252263
0.6751935 -0.58933175 -0.1195149 -0.3907998 0.7320529 -0.4026176 -0.3018806 0.4867997
-0.3861197 0.7390086 0.86115354 -0.26404336 0.4778485 -0.34733436 -0.91237175 -0.33799538
-0.23729485 0.21524899 0.6609961 -0.09338126 0.68223923 -0.21655197 -0.031019332 -0.04902378
-0.5360863 -0.19246933 -0.14422327 0.16146865 0.2733996 -0.5758719 -0.46133903 -0.28995097
0.27905017 -1.1602465 0.2914734 -0.47148037 0.12651734 0.16200449 0.4969149 -0.39058295
-0.11888939 0.20683283 -0.03311147 0.15413089 -0.2147608 -0.18612333 0.60812074 0.42252594
0.3353617 -0.1248429 0.18468088 0.32251054 0.8763984 -0.17391136 0.39334548 0.06683781
0.7728127 -0.4699319 0.10142279 -0.1973883 1.0614729 -0.6466993 0.3294853 -0.4439301
-0.36626178 -0.06751495 -0.3584221 0.43265778 -0.19575138 -0.65276873 -0.7602743 -0.5488292
0.58761185 0.6891488 -0.29698715 0.99576133 0.36931935 0.30051225 -0.5801505 -0.7097521
0.8291977 0.52023655 -0.1380413 -0.12028249 0.34796926 0.3153561 -0.36978453 -0.19002727
0.5913812 -0.013512624 0.14688393 -0.33769214 -0.047148883 -0.8944341 0.24303524 0.528145
0.9854677 0.1299583 0.46965602 0.6069635 -0.34042957 0.17627567 0.605696 -0.64426875
0.2049306 -0.13235362 0.6383803 0.33068016 0.22957481 -0.011291246 0.33106014 0.3515367
0.5576071 -0.68597335 0.063954175 -1.0777762 -0.81165236 -0.06444533 0.2950318 -0.10817065
-0.13343813 0.02973462 0.05681415 -0.047327504 -0.49894872 0.9011862 0.48563784 -0.44722497
0.8055392 -0.5396705 -0.32938907 0.40713516 -0.14008026 0.33204535 -0.84861326 0.29091892
0.5499327 -0.5866263 0.67377526 -0.37312642 -0.6090308 0.21279244 -0.24514507 -0.91657543
-0.33148146 0.106418975 0.716576 0.42999354 0.11918358 -0.15095297 0.26996896 -0.08259708
0.2901644 -0.43420976 -0.94605124 0.26491535 0.66253376 -0.0025804245 0.33975145 -0.42781878
-0.2082198 -0.34222302 0.31735528 -0.63322806 0.80218726 0.34961382 -0.20875397 -0.7092954
0.18854065 -0.43022427 -0.67733455 0.44245258 -0.46062407 -0.1360511 -0.76413 0.06243219
-0.29005075 0.7246393 0.22175866 0.2029949 -0.9496766 -0.11233031 0.10511173 -0.08640495

attention.in_proj_bias f4 [48]
00000000: 0000 0000 0000 0000 0000 0000 0000 0000
00000010: 0000 0000 0000 0000 0000 0000 0000 0000
00000020: 0000 0000 0000 0000 0000 0000 0000 0000
00000030: 0000 0000 0000 0000 0000 0000 0000 0000
00000040: 0000 0000 0000 0000 0000 0000 0000 0000
00000050: 0000 0000 0000 0000 0000 0000 0000 0000
00000060: 0000 0000 0000 0000 0000 0000 0000 0000
00000070: 0000 0000 0000 0000 0000 0000 0000 0000
00000080: 0000 0000 0000 0000 0000 0000 0000 0000
00000090: 0000 0000 0000 0000 0000 0000 0000 0000
000000a0: 0000 0000 0000 0000 0000 0000 0000 0000
000000b0: 0000 0000 0000 0000 0000 0000 0000 0000
0.0 0.0 0.0 0.0 0.0 0.0 0.0 0.0
0.0 0.0 0.0 0.0 0.0 0.0 0.0 0.0
0.0 0.0 0.0 0.0 0.0 0.0 0.0 0.0
0.0 0.0 0.0 0.0 0.0 0.0 0.0 0.0
0.0 0.0 0.0 0.0 0.0 0.0 0.0 0.0
0.0 0.0 0.0 0.0 0.0 0.0 0.0 0.0

attention.out_proj.weight f4 [16, 16]
00000000: 0d57 9940 0c78 83c1 26ab a740 ae2a 9441
00000010: f979 8cc0 979e d7c1 0803 f7c0 f007 3a41
00000020: e000 18c1 d592 0041 2513 21c0 3a41 2d41
00000030: d3fb 8440 2d14 99c1 1e26 e540 39a5 de41
00000040: 6ec4 27c1 e9fb 0fc1 3d27 3541 5a6d b33f
00000050: ea38 83c0 7abd 39c1 1afe 00c0 080a 93c1
00000060: eea2 d3c1 5844 d23e b89c 95c1 b3d7 5640
00000070: 02e1 6541 72d1 5341 7826 a740 566a edc1
00000080: 742b 3fc0 0324 b041 f76f c9c1 76ee de41
00000090: c462 6f40 4634 8b3e c0b4 e940 cfc4 f4c0
000000a0: b053 afbf 2a24 4441 9f9b 11c1 8767 3ec1
000000b0: 7a49 66c0 3fb0 ce40 dbcb 9641 ecbf e240
000000c0: b4e9 02c2 1ad7 d1bd f634 5ec1 436f 42c1
000000d0: de3e a3c1 d37a 55c0 8cf2 6bc1 ddee 8441
000000e0: 36ee 1940 fd71 c4c0 2a23 9d40 1291 60c0
000000f0: ddb6 0ebe 4ee0 9940 b71e 6341 ef33 0840
00000100: 60b1 dac0 3c1b bbc0 ffb0 8041 7604 6841
00000110: 4a78 a540 f997 5a41 d485 ccc0 6010 c241
00000120: ddad b5bd cc3f 8d41 ac01 5ac1 5b99 1241
00000130: 708e c0c1 7a30 a341 3530 fdc0 7062 68c0
00000140: 0cce 2b40 08dd c6be e82d 5840 01ee 6140
00000150: 32f3 05c0 c180 e5c1 03de 843f 9abc bbbc
00000160: fe74 f541 c5d1 8741 3367 3341 89dd 88c0
00000170: afff 9ac0 ffc0 da40 5623 d43e 1198 f7c1
00000180: 29a8 a241 e0d1 fac0 d7df 5740 b389 9040
00000190: bc8d 0bc2 43f2 3741 5d66 1fc1 f6ef d1bd
000001a0: da88 a4c0 f10f 1a41 f379 08bf 5feb fcc1
000001b0: f96f 61bf d56b 2e3c c3b2 86bd 26a2 4fc0
000001c0: 8c13 6c3f 1f12 76c1 fad3 9dc1 13e8 90c0
000001d0: b0d8 2340 e9c0 c43d e0c7 00c1 bd53 60c1
000001e0: 4679 fcc0 1f4b b841 a5bf 8441 ebb7 0d41
000001f0: bbdf be40 fd51 cc41 fa4b 45c1 ceb1 8341
00000200: 4784 56c1 f048 2541 c34b 5e41 7a3a cec0
00000210: 06f9 74be 1b83 1c41 1854 3441 45bb 7640
00000220: b160 aec0 dd22 1842 364d be40 0f55 edbf
00000230: 0fcc a641 01a8 96c1 7aef 14c0 4334 5fbf
00000240: 2b07 4141 e9c2 99c1 1b88 12c1 3c1f bfc0
00000250: 0d86 cc40 ac65 2c41 984d 3041 30de 8041
00000260: 9b5c 7f41 5621 873f c408 26c1 c439 a440
00000270: 6064 e941 45c0 3241 8478 af41 898e 79c0
00000280: 3da5 fcbf 58c0 1640 7e2e fc41 5567 9940
00000290: 6e36 30c1 a5a9 c340 b9e2 f640 e194 87c1
000002a0: c25c 1141 a159 58c0 a8fd 5641 5af5 3e41
000002b0: 5ad6 6dc0 636b 7441 0647 b341 54c9 9b41
000002c0: 1b51 f6bf e668 3f40 61a1 2441 d07f 6540
000002d0: 2716 0641 a717 4ec1 adbe 9e41 1d2e 9c41
000002e0: ee58 81c1 1db8 35c1 8256 4e41 b56b dfc1
000002f0: b2d2 1c41 7152 ad41 cbbc c7c0 b619 dd40
00000300: 8fcf bc40 6d65 b141 4885 2441 1add 1241
00000310: cf64 d240 e8e3 603f 00c6 09c2 e9e8 8240
00000320: 09af cb40 b854 b5c0 0264 a63f fcda 1640
00000330: 78b7 e841 38fd 0341 a183 9bc0 a046 953f
00000340: 7c19 0a41 2cc5 aa41 3a8e cabf a5c2 95c1
00000350: aa69 a5c1 098d 5ec1 a68e 4b41 de33 8640
00000360: e5ab 9640 2e49 9740 e1be 9cc1 423d 5d41
00000370: 2e54 e93f e208 4441 8d22 3fc1 c810 8e41
00000380: 1658 71c0 9aea afc0 4aff 1a41 6557 a0c1
00000390: 14ef a441 bc7d d3c0 d1b4 42c1 f5a5 25c1
000003a0: d046 2f41 51db 1b41 23be 7ec1 431d e7c1
000003b0: dca3 edc0 3da9 d93f e21e df40 8b9f b341
000003c0: 7537 9141 8de3 5441 0307 21bf e0c6 9ac1
000003d0: b0b4 0241 3d55 7ec0 513c 09c1 31ac 3241
000003e0: 1398 bdc1 6573 1a41 556f 1541 d891 fa40
000003f0: 008c 67c1 39c5 c33f 473e b041 5e31 3dc1
4.7918763 -16.433617 5.239642 18.52084 -4.3898892 -26.952436 -7.71912 11.626938
-9.500214 8.035848 -2.5167935 10.828424 4.1557403 -19.134851 7.160903 27.830675
-10.485456 -8.9990015 11.32208 1.4017746 -4.1006975 -11.608759 -2.0155091 -18.379898
-26.454556 0.41067767 -18.701523 3.3569152 14.367434 13.238634 5.223446 -29.676922
-2.9870272 22.017584 -25.17967 27.866436 3.7404032 0.2718832 7.303314 -7.6490245
-1.3697414 12.258829 -9.100493 -11.900275 -3.5982347 6.4590144 18.849539 7.085928
-32.728226 -0.102461055 -13.88793 -12.1521635 -20.405697 -3.3356216 -14.746716 16.616632
2.4051642 -6.1389146 4.9105425 -3.5088544 -0.13936944 4.808631 14.194999 2.1281698
-6.834152 -5.8470745 16.086424 14.501089 5.1709337 13.662103 -6.3913364 24.257996
-0.088710524 17.65615 -13.625408 9.16244 -24.06955 20.39867 -7.9121346 -3.6310081
2.684451 -0.38840508 3.377802 3.5301516 -2.0929685 -28.687868 1.0380253 -0.02291708
30.682125 16.977427 11.212695 -4.277043 -4.8437114 6.836059 0.4143321 -30.949251
20.33211 -7.8381195 3.373037 4.516809 -34.888412 11.496646 -9.962491 -0.10250847
-5.1417055 9.628892 -0.5331108 -31.614927 -0.8806148 0.010645826 -0.06577065 -3.2442718
0.92217326 -15.379424 -19.728504 -4.5283294 2.5601006 0.09607107 -8.048798 -14.020444
-7.889804 23.03668 16.593576 8.857402 5.964811 25.540033 -12.331049 16.461819
-13.407294 10.330307 13.8934965 -6.4446383 -0.2392312 9.782008 11.270531 3.85518
-5.449303 38.034046 5.946925 -1.8541583 20.849638 -18.832033 -2.3271165 -0.8718912
12.06425 -19.220171 -9.158229 -5.972563 6.3913636 10.774822 11.018944 16.10849
15.960109 1.0557048 -10.37714 5.1320515 29.174011 11.171941 21.933846 -3.8993247
-1.9737927 2.3554897 31.522701 4.793864 -11.0132885 6.1144586 7.715176 -16.947695
9.085146 -3.3804705 13.436928 11.9349 -3.716208 15.276217 22.40968 19.473305
-1.9243501 2.9907775 10.289399 3.585926 8.380408 -12.8807745 19.843103 19.522516
-16.168423 -11.35745 12.89612 -27.927591 9.801439 21.665255 -6.241796 6.9093885
5.9003367 22.174524 10.282539 9.17898 6.5748057 0.8784776 -34.44336 4.0909314
6.3651166 -5.6665916 1.299927 2.3571157 29.089584 8.249321 -4.859818 1.1662178
8.631222 21.346275 -1.5824654 -18.720041 -20.676594 -13.909432 12.722326 4.1938314
4.708483 4.727683 -19.593203 13.8274555 1.8228815 12.252169 -11.945935 17.758194
-3.7710013 -5.497388 9.687326 -20.042673 20.616737 -6.6090984 -12.169145 -10.353017
10.954788 9.741044 -15.92142 -28.889288 -7.4262524 1.7004772 6.97252 22.452902
18.152079 13.305554 -0.62901324 -19.347107 8.169113 -3.9739525 -8.577226 11.167039
-23.699255 9.6531725 9.339681 7.830303 -14.47168 1.5294563 22.030409 -11.824553

attention.out_proj.bias f4 [16]
00000000: 5efa 9abc f6ba 38bd 3748 8e3d d87f 423d
00000010: dabb 993b 888d 483a 74a7 f7bc 5a25 9f3d
00000020: 8d32 bdbc d2a3 063d 74fa a63b d082 f43c
00000030: c369 16bd d5d6 3d3c 3814 b5bc 1cf0 23bc
-0.018918213 -0.045100175 0.06947368 0.047485203 0.004691583 0.00076504843 -0.030231215 0.07770796
-0.023095394 0.032871075 0.0050957743 0.029847533 -0.036721956 0.0115868645 -0.022104368 -0.010005977
