results/attention_layer/checkpoints/attention_layer_results_method_adam_lr_0.001.pth (torch, 7480 bytes, 4 tensors)

attention.in_proj_weight f4 [48, 16]
0	0x3e0a1072	0.13482836
1	0x3bfdcc00	0.007745266
2	0xbe6bbf00	-0.2302208
3	0xbdc1cf60	-0.09463382
4	0x3e72bdea	0.23705259
5	0xbe5e4f58	-0.21709955
6	0xbe87c7d8	-0.26519656
7	0xbe8c43de	-0.2739553
8	0x3e2bed76	0.16789803
9	0x3e8210f9	0.25403574
10	0xbd00d118	-0.031449407
11	0x3e67782e	0.22604439
12	0x3d13fe00	0.036130905
13	0xbdfd480c	-0.123672575
14	0xbbb99c80	-0.005664408
15	0xbdb2e3c6	-0.087348506
16	0x3d13e500	0.036107063
17	0xbe0b3fcc	-0.13598555
18	0xbe3fec4a	-0.18742481
19	0xbceeba60	-0.029141605
20	0xbe17593f	-0.14780138
21	0x3e3ffc42	0.18748572
22	0xbe6d9adc	-0.23203605
23	0x3e8a1cad	0.26975003
24	0x3e124b74	0.14286596
25	0x3e8838dd	0.26605883
26	0x3c8580d0	0.016296774
27	0xbe415f56	-0.18884024
28	0xbe3a330b	-0.18183534
29	0xbe4cae7c	-0.19988436
30	0xbe0ee474	-0.13954335
31	0xbe8fc74b	-0.28081736
32	0xbdf48c06	-0.1194077
33	0xbd3941e0	-0.04522884
34	0x3e095a5e	0.13413379
35	0xbe9bccc4	-0.3042966
36	0x3bdc6e00	0.00672698
37	0x3c9db8c0	0.019253135
38	0x3e8d5033	0.2760025
39	0x3d703618	0.058645338
40	0x3e1811a2	0.14850476
41	0x3e9c585f	0.30536172
42	0x3dba7360	0.09104037
43	0xbd576bd0	-0.052593052
44	0x3d67d888	0.056602985
45	0xbc3954a0	-0.01131168
46	0xbe118927	-0.14212476
47	0xbe33a888	-0.17544758
48	0x3e42a078	0.19006526
49	0x3d477590	0.0486961
50	0xbe7e6fe3	-0.24847369
51	0xbcb3a110	-0.021927387
52	0x3c1ef6c0	0.0097023845
53	0x3e8c0c27	0.27353022
54	0xbe99675d	-0.29961672
55	0x3e448984	0.19193083
56	0x3cc00ba0	0.023443043
57	0xbe6c92ba	-0.23102847
58	0xbe6745b1	-0.22585179
59	0xbd9db008	-0.07699591
60	0x3e184980	0.14871788
61	0xbe76e516	-0.24110827
62	0x3d090280	0.03344965
63	0xbe8ed2a4	-0.2789508
64	0xbbc0dc80	-0.0058856606
65	0x3d7279d0	0.0591982
66	0xbde694a0	-0.11258817
67	0xbcfdaee0	-0.030967176
68	0xbe7d9bee	-0.24766514
69	0xbe66e5fa	-0.22548667
70	0xbe1fe90b	-0.15616243
71	0xbe496574	-0.19667608
72	0x3e777afa	0.24168006
73	0xbe74380a	-0.23849502
74	0xbd3ec1e8	-0.046571642
75	0xbe06fcf4	-0.13182431
76	0x3e04475e	0.1291785
77	0xbe8b46fb	-0.2720259
78	0x3df71d38	0.1206612
79	0x3e434dc2	0.19072631
80	0xbdb1d8ba	-0.086839154
81	0x3e73499a	0.23758546
82	0x3dd9d8ac	0.1063703
83	0xbe470b2b	-0.19437854
84	0x3ba36740	0.0049866736
85	0xbe11e5a9	-0.14247765
86	0xbe5baae6	-0.21451911
87	0xbe949b9a	-0.29024965
88	0x3e16f1d8	0.14740694
89	0xbcc9add0	-0.024619013
90	0x3e06f8f2	0.13180903
91	0xbd0a3908	-0.033745795
92	0x3e9a9399	0.30190733
93	0xbe070ad6	-0.13187727
94	0x3d94eb54	0.07271448
95	0xbdc2271e	-0.09480117
96	0xbe2b76a8	-0.16744483
97	0x3d97a048	0.07403618
98	0x3e5ee5b2	0.2176731
99	0x3e2f9390	0.17146134
100	0x3e3e6adc	0.18595451
101	0xbe7e7d28	-0.24852431
102	0x3be62500	0.0070234537
103	0xbe3dba9a	-0.18528214
104	0xbd98027e	-0.0742235
105	0xbe92dacc	-0.28682554
106	0x3db00ac0	0.085958004
107	0xbe529148	-0.20563233
108	0xbdd9310c	-0.10605058
109	0xbdaaafee	-0.08334337
110	0x3e479c62	0.19493249
111	0xbe1458f5	-0.1448706
112	0x3e1b2274	0.15149862
113	0xbd66f244	-0.056383386
114	0x3e014814	0.12625152
115	0xbe2c091c	-0.1680035
116	0x3c355040	0.011066496
117	0x3e305744	0.17220789
118	0x3d44ad68	0.048016936
119	0x3d95fc2c	0.073234886
120	0x3e08d508	0.13362515
121	0x3df35474	0.118813425
122	0x3e844e3f	0.25840947
123	0xbc3f8340	-0.011689007
124	0x3e751bc2	0.2393637
125	0xbc8e08c0	-0.017338157
126	0x3e29e068	0.1658951
127	0x3e3dd434	0.1853798
128	0x3e99b1d3	0.30018482
129	0xbbfe7040	-0.007764846
130	0xbe869b86	-0.2629053
131	0x3e0bb552	0.13643387
132	0x3e973989	0.29536083
133	0xbe2268c7	-0.15860282
134	0xbd80c734	-0.06287995
135	0xbdb2bbc8	-0.08727223
136	0x3bf56c80	0.007489741
137	0x3e1a34c4	0.15059191
138	0xbe7052ab	-0.23469035
139	0xbd0ef300	-0.03489971
140	0xbd80a8ee	-0.06282221
141	0xbdef35c4	-0.11680177
142	0xbd9e8962	-0.077410474
143	0xbe8caef7	-0.27477238
144	0x3ccd6b90	0.025075704
145	0x3e08741c	0.13325542
146	0xbe7c8e5c	-0.24663681
147	0x3e842cf9	0.2581556
148	0x3d101400	0.035175323
149	0x3dabec6c	0.08394703
150	0xbe0bbe04	-0.13646704
151	0xbe91f31b	-0.28505787
152	0x3e03aeca	0.12859645
153	0x3e1d4778	0.15359294
154	0xbe5cb620	-0.2155385
155	0xbd3067b8	-0.043067664
156	0x3d72bf18	0.059264272
157	0x3dbadb0c	0.09123811
158	0xbe18ce38	-0.14922416
159	0x3db2cd24	0.08730534
160	0x3e4c39f2	0.1994398
161	0x3d2db398	0.042407602
162	0xbdfd3e26	-0.123653695
163	0xbe1cef14	-0.15325576
164	0xbe712fd0	-0.23553395
165	0xbe76406c	-0.24048012
166	0x3d1334a0	0.03593886
167	0x3e482a8e	0.19547483
168	0x3e7823ae	0.2423236
169	0xbcc902c0	-0.024537444
170	0x3e1735e0	0.14766645
171	0x3e1cda8e	0.15317747
172	0xbccafd60	-0.024779022
173	0x3e558c1a	0.20854226
174	0x3e2b91a2	0.16754773
175	0xbe7e6a2f	-0.24845193
176	0xbc5c53c0	-0.013447702
177	0x3e09f908	0.13473904
178	0x3e5c6d6e	0.21526119
179	0x3e91bf59	0.284663
180	0x3e5bb32e	0.2145507
181	0xbd31d980	-0.043420315
182	0xbcc964a0	-0.024584115
183	0x3e8a0957	0.2696025
184	0x3e3eb9ea	0.18625608
185	0xbe5cb222	-0.21552327
186	0x3e7486d6	0.23879561
187	0xbe683f48	-0.2268039
188	0xbdfafb40	-0.122549534
189	0x3e659992	0.22421864
190	0x3e800573	0.25004157
191	0x3de5ecb4	0.11226788
192	0xbe6dae1c	-0.23210949
193	0x3e81a2a1	0.25319389
194	0x3dde5130	0.10855329
195	0xbdb162c0	-0.08661413
196	0xbe5dec8f	-0.21672271
197	0x3e870ffd	0.26379386
198	0x3e37c344	0.17945582
199	0xbe845e21	-0.25853065
200	0x3e634386	0.22193727
201	0xbe511b4e	-0.20420572
202	0xbe3ae1be	-0.18250176
203	0x3dcc1f18	0.09966868
204	0xbd5fb568	-0.05461636
205	0x3d94808c	0.07251081
206	0xbe8bc9cb	-0.27302393
207	0x3e1e95ee	0.15486881
208	0x3e793a82	0.24338725
209	0xbcba4e80	-0.02274251
210	0x3e53c61e	0.20681044
211	0x3d3a9a98	0.04555759
212	0xbd1698b8	-0.036766738
213	0x3c2beec0	0.010493934
214	0xbd119d20	-0.035550237
215	0xbe39043f	-0.18068026
216	0xbce73a00	-0.028225899
217	0xbe23f7ac	-0.16012448
218	0x3e037f4a	0.12841526
219	0x3e61c64a	0.22048298
220	0x3e59575a	0.21224728
221	0xbdea9328	-0.11453849
222	0x3e5368da	0.20645466
223	0x3e27f57e	0.16402242
224	0x3e56492a	0.20926347
225	0xbd1c11e8	-0.038103014
226	0xbe998bf5	-0.2998959
227	0x3a024e00	0.00049707294
228	0x3e561f9e	0.20910498
229	0xbd7f6e70	-0.06236118
230	0xbd3a4ac0	-0.045481443
231	0xbe96b6ec	-0.29436433
232	0xbd7d5cbc	-0.061856017
233	0x3c05ba40	0.008162081
234	0x3e054f0e	0.13018438
235	0xbe4ce6aa	-0.20009866
236	0x3e70acee	0.23503467
237	0x3da4a3d4	0.0803906
238	0xbdfcae52	-0.123379365
239	0xbdebcafe	-0.11513327
240	0x3d69b638	0.057058543
241	0xbdfb983e	-0.12284897
242	0xbe99f6c3	-0.30071077
243	0x3dff482c	0.124649376
244	0xbe8e413f	-0.27784154
245	0xbd9734e2	-0.073831335
246	0xbe98780e	-0.29779094
247	0xbdbc9534	-0.09208146
248	0xbe6d36e9	-0.23165478
249	0x3e8fe415	0.281037
250	0x3d34c678	0.044134587
251	0xbb250980	-0.0025182664
252	0xbe87d3c5	-0.26528755
253	0xbe8d410c	-0.2758869
254	0x3d893b00	0.067007065
255	0x3ddc2cec	0.10750756

attention.in_proj_bias f4 [48]
0	0x00000000	0.0
1	0x00000000	0.0
2	0x00000000	0.0
3	0x00000000	0.0
4	0x00000000	0.0
5	0x00000000	0.0
6	0x00000000	0.0
7	0x00000000	0.0
8	0x00000000	0.0
9	0x00000000	0.0
10	0x00000000	0.0
11	0x00000000	0.0
12	0x00000000	0.0
13	0x00000000	0.0
14	0x00000000	0.0
15	0x00000000	0.0
16	0x00000000	0.0
17	0x00000000	0.0
18	0x00000000	0.0
19	0x00000000	0.0
20	0x00000000	0.0
21	0x00000000	0.0
22	0x00000000	0.0
23	0x00000000	0.0
24	0x00000000	0.0
25	0x00000000	0.0
26	0x00000000	0.0
27	0x00000000	0.0
28	0x00000000	0.0
29	0x00000000	0.0
30	0x00000000	0.0
31	0x00000000	0.0
32	0x00000000	0.0
33	0x00000000	0.0
34	0x00000000	0.0
35	0x00000000	0.0
36	0x00000000	0.0
37	0x00000000	0.0
38	0x00000000	0.0
39	0x00000000	0.0
40	0x00000000	0.0
41	0x00000000	0.0
42	0x00000000	0.0
43	0x00000000	0.0
44	0x00000000	0.0
45	0x00000000	0.0
46	0x00000000	0.0
47	0x00000000	0.0

attention.out_proj.weight f4 [16, 16]
0	0x3c0b9b36	0.008520892
1	0xbb8f3f47	-0.004371557
2	0x3c6d13e9	0.014470079
3	0xbb315a7e	-0.0027061994
4	0x3c9f98e3	0.019482082
5	0xbd22aa68	-0.039713293
6	0x3bbb8e81	0.005723775
7	0x3bc88d40	0.006120354
8	0xbcb31787	-0.021861805
9	0x3d0d589a	0.034508325
10	0xbcca0034	-0.0246583
11	0xbc9e7216	-0.01934151
12	0x3c69f122	0.014278682
13	0xbd1b090c	-0.037850425
14	0x3c1d4910	0.009599939
15	0x3cfc7e8d	0.030822063
16	0xbb428e67	-0.002968693
17	0xbc4d83ec	-0.01254366
18	0x3d4113a6	0.04713788
19	0xbcaa72e1	-0.020806732
20	0x3d35a216	0.04434403
21	0xbc09af7a	-0.008403653
22	0x3d81e6c0	0.0634284
23	0x3cf25b5a	0.029584575
24	0x3aa321b4	0.0012445957
25	0xbc89f050	-0.016838223
26	0xbd6d6452	-0.057957
27	0xbd1da63a	-0.038488604
28	0x3d937ff0	0.072021365
29	0x3d2667f5	0.040626485
30	0x3dc0ecd4	0.094201714
31	0x3c7a8d3c	0.015292462
32	0x3b84fe44	0.004058631
33	0xbb41317d	-0.002947896
34	0x3c16565a	0.009175861
35	0xbcd6510c	-0.026161693
36	0x3a826de5	0.0009950964
37	0xbd17c910	-0.037056983
38	0x3c3009ba	0.0107445065
39	0xbcad9fd5	-0.021194378
40	0x3c385278	0.011250131
41	0x3ccc898d	0.024967933
42	0xbc24375a	-0.0100229625
43	0xbcc9640e	-0.024583843
44	0xbb941482	-0.0045190463
45	0xbc96b677	-0.018397553
46	0xbc9bb53a	-0.019007314
47	0x3c18f944	0.009336773
48	0x3be6edd7	0.0070473957
49	0xbd36367a	-0.044485547
50	0x3d5eca56	0.05439218
51	0x3a5922a4	0.0008283055
52	0x3c959949	0.018261569
53	0xbcbabb7a	-0.022794474
54	0x3d2abcb7	0.04168388
55	0x3b00ee6a	0.0019673356
56	0x3d1f1697	0.038839903
57	0xbc0db929	-0.008650103
58	0xbcc45317	-0.023965402
59	0xbcf5a804	-0.029987343
60	0x3de3fe59	0.11132497
61	0x3cbe7d49	0.0232531
62	0x3d903af5	0.07042495
63	0xbb5e40bc	-0.0033913096
64	0xbd63bd7c	-0.05560063
65	0x3de95720	0.11393571
66	0xbd81afcc	-0.06332359
67	0x3d6f1707	0.05837157
68	0xbce554fc	-0.027994625
69	0x3d84ef18	0.06490916
70	0xbd26dec0	-0.040739775
71	0x3decc4f8	0.11561006
72	0xbd64f942	-0.055901773
73	0xbddeece5	-0.10885028
74	0x3c9caf44	0.019126542
75	0x3d1c1b6c	0.03811209
76	0xbe24b674	-0.16085225
77	0x3d09988e	0.033592753
78	0xbdab1c3d	-0.083549954
79	0xbcf35b50	-0.029706627
80	0x3d37f485	0.044910926
81	0xbd2039b5	-0.039117534
82	0x3c86801a	0.016418505
83	0xbc83cd16	-0.016089004
84	0xbca7a841	-0.020465972
85	0xbd130ee2	-0.035902865
86	0xbd4fc98e	-0.050729327
87	0xbdabb472	-0.083840266
88	0x3d6ae707	0.05734923
89	0x3d933738	0.071882665
90	0x3d1abfc0	0.037780523
91	0xba824f3e	-0.0009941829
92	0x3bec024d	0.0072024227
93	0xbc91ca69	-0.017796712
94	0xbd63b86c	-0.0555958
95	0xbc918556	-0.017763775
96	0x3cc409d7	0.023930473
97	0x3c035511	0.008015887
98	0xbd1e8a78	-0.038706273
99	0x3d08bb35	0.03338166
100	0xbd7aa303	-0.061190616
101	0xba997ca5	-0.0011710121
102	0xbdfb726b	-0.12277683
103	0xbd90ab6e	-0.070639476
104	0xbb39943a	-0.002831711
105	0x3c805bdf	0.015668808
106	0x3da0423e	0.07825135
107	0x3bde420e	0.0067827767
108	0xbde356cf	-0.11100542
109	0xbd04a348	-0.03238228
110	0xbe17b8e7	-0.14816628
111	0xbd3beacd	-0.04587822
112	0x3ca88962	0.020573322
113	0xbb60e076	-0.0034313477
114	0xbb30904b	-0.0026941474
115	0x3a00f829	0.0004919791
116	0xbc5374bd	-0.012906251
117	0xbb209614	-0.0024503516
118	0xbd7d0253	-0.061769795
119	0xbcff75f6	-0.031184178
120	0x3cacdf3a	0.021102536
121	0x3c926f15	0.017875234
122	0x3d3d62b8	0.046236724
123	0x3ba8e3be	0.005154102
124	0xbd8f253d	-0.069895245
125	0xbc970b37	-0.018437965
126	0xbd92d251	-0.07169021
127	0xbc45e11d	-0.012077597
128	0xbc389dc3	-0.011268082
129	0xbc5ce191	-0.013481514
130	0x3d205a4a	0.039148606
131	0xbc9430ea	-0.01808973
132	0x3d8b63b4	0.06806126
133	0x3c2ff636	0.010739854
134	0x3da48438	0.08033031
135	0x3d372d20	0.04472077
136	0x3b73dfe8	0.0037212316
137	0xbae544c3	-0.0017491806
138	0xbd3e1ec8	-0.046416074
139	0xbc50c9ca	-0.012743423
140	0x3e1986af	0.14992784
141	0x3d0b0f09	0.033949886
142	0x3e0becdb	0.13664572
143	0x3b8aa809	0.004231457
144	0xbc0c3913	-0.008558529
145	0x3c671a9d	0.014105466
146	0x3d774f24	0.06037821
147	0xbcc4bef7	-0.02401684
148	0x3d53d825	0.051719803
149	0xbc83d11c	-0.016090922
150	0x3e1a7a18	0.15085638
151	0x3d7535b3	0.059865665
152	0x3c4c1c7b	0.012457962
153	0xbb44a80c	-0.003000739
154	0xbdbc8d39	-0.092066236
155	0xbc23f4bf	-0.0100070825
156	0x3e1131ad	0.14179106
157	0x3d0017e7	0.031272795
158	0x3e0e201f	0.1387944
159	0x3d81e43e	0.06342362
160	0x3d4f0b5a	0.050547935
161	0xbd1bfd94	-0.038083628
162	0x3d71db8e	0.059047274
163	0xbd3b11a3	-0.045671117
164	0x3b090e6e	0.0020913142
165	0xbca5f2f1	-0.020257445
166	0xbc355426	-0.011067426
167	0xbd5a5054	-0.053299263
168	0x3d732fa0	0.05937159
169	0x3d99e1be	0.0751376
170	0x3c722c25	0.014781033
171	0xbba301ec	-0.0049745943
172	0x3d0a9ff0	0.033843935
173	0xbcc60b83	-0.024175411
174	0xbc5a6e69	-0.013331988
175	0x3b4c80be	0.0031204666
176	0xbc9e019a	-0.019287873
177	0x3c36f647	0.0111671155
178	0x3c232672	0.009957897
179	0xbd018d5f	-0.031628963
180	0x3cf834da	0.03029864
181	0x3c075051	0.008258895
182	0x3dc3c8c0	0.095597744
183	0x3d94cd9b	0.07265779
184	0x3b42267f	0.0029624996
185	0x3c960fad	0.018318022
186	0xbd2ff8ff	-0.04296207
187	0xbc671ae2	-0.01410553
188	0x3d85dbf8	0.06536096
189	0x3cda9fce	0.026687529
190	0x3dc323af	0.095282905
191	0x3d69f51f	0.05711853
192	0x3afbff12	0.0019225797
193	0x3c98da9e	0.018658932
194	0x3d0199b4	0.031640723
195	0x3b2fb6ae	0.0026811766
196	0x3d5241b3	0.051332187
197	0x3d0617e5	0.03273763
198	0x3cf516a8	0.02991803
199	0x3d85c922	0.06532504
200	0x3c85eb4e	0.016347554
201	0xbcb46958	-0.022022888
202	0xbd115dac	-0.035489723
203	0xbcb24949	-0.02176346
204	0x3db0d90d	0.08635149
205	0x3ce0ff97	0.027465625
206	0x3d8e36fa	0.0694408
207	0x3c7d0301	0.015442611
208	0x3ca8d2c5	0.020608315
209	0xbd29935c	-0.0414003
210	0x3d5e4f21	0.054274682
211	0xbcd7b7ef	-0.026332824
212	0xbc9f4550	-0.01944223
213	0xbd447f42	-0.047972925
214	0xbb5fa267	-0.00341239
215	0xbdb71f27	-0.08941489
216	0x3d12bc3b	0.03582404
217	0x3d91c483	0.0711756
218	0xbba23bdc	-0.0049509834
219	0xbbdc537f	-0.0067238207
220	0x3d85f8d4	0.06541601
221	0xbd08d938	-0.03341028
222	0xbc5641bc	-0.013077196
223	0x3c8599e8	0.01630874
224	0xbd699a99	-0.0570322
225	0xbcca8101	-0.024719717
226	0xbc2db1d6	-0.010601481
227	0x3b36cd58	0.002789339
228	0x3d23d7b4	0.040000632
229	0xb8d4d516	-0.00010148638
230	0x3d424680	0.047430515
231	0x3cc3d818	0.023906752
232	0x3a0ab1b4	0.0005290762
233	0xbb6da3a1	-0.003626086
234	0xbcb91014	-0.022590674
235	0x3b9a4d6a	0.0047089355
236	0x3dc23aa5	0.09483842
237	0x3d8b0490	0.067879796
238	0x3dcbae81	0.09945393
239	0xbc378fdc	-0.011203732
240	0xbd736cc2	-0.05942989
241	0x3dd45129	0.103670426
242	0xbd268cb1	-0.040661518
243	0x3d5efb1a	0.054438688
244	0x3cf75bb2	0.03019509
245	0x3d4db30e	0.050219588
246	0x3ca642b0	0.020295471
247	0x3e13a33e	0.1441774
248	0xbd181044	-0.037124887
249	0xbdf4cc87	-0.11953073
250	0xbca366d0	-0.019946486
251	0x3d6dd713	0.05806644
252	0xbd947375	-0.07248584
253	0x3d581f08	0.05276397
254	0x3b3735a5	0.0027955559
255	0xbd6b51c6	-0.057451032

attention.out_proj.bias f4 [16]
0	0x3bbce266	0.0057642935
1	0xbb0c6a4c	-0.0021425663
2	0x3bd82751	0.0065964838
3	0x3ab667d0	0.0013916437
4	0xbbf7ed05	-0.0075660967
5	0xbb221710	-0.0024732985
6	0x3a972611	0.001153173
7	0xbb5c54d9	-0.003361991
8	0xbbcb178f	-0.0061978768
9	0xbb259afe	-0.0025269384
10	0x3b72d84c	0.0037055193
11	0xbbe70a4c	-0.007050788
12	0x3abd0522	0.0014421085
13	0xbac79cc6	-0.0015229217
14	0xbbb67962	-0.005568669
15	0x38cff032	9.915269e-05
